go2_sr/policy/go2/stairs/policy_1.pt (torch, 793096 bytes, 8 tensors)

weight f4 [512, 57]
00000000: ce9d d1be 440f a7be 2ad2 9b3e 2ef7 4cbe
00000010: 6609 cf3d 5714 c2be 5b0f 083e d94b 8cbf
00000020: 585a e33e afa2 00bf 1fe6 bfbe 363f 7b3f
00000030: b75a b13e 1766 a63d c6e1 4dbe f5d3 a6be
00000040: 57d5 dcbe fe64 d63e 8866 67bd 89c6 e9bd
00000050: 6df8 5e3d b9b7 dbbc 2efd 4abc e964 253e
00000060: 9560 d1bd f3f2 c9be 2851 efbd a168 ecbd
00000070: 1872 8dbe 2b47 25bd b19a 02bd c4c7 10bf
00000080: 7419 e4bb 1486 583d e50a 2fbd 39e5 7f3d
00000090: 5945 22be 6b7c b73d 2830 d6bd bf34 133d
000000a0: bb2e b2bc 45ff 10bd f05a c6bc 5e24 a73d
000000b0: 6dc6 5ebd 6079 b73d 1e62 313d a653 32bd
000000c0: 47f6 0abd dfd0 df3d b390 86bd 3f3d 303d
000000d0: 17ba 283d 7ed3 45bc f716 9cbd f939 c43d
000000e0: ed3f 183d a1c6 a3bc 7eab 00be 81ae 6a3d
000000f0: f624 3bbe 5706 e7bd 2a4a 3e3f 3c53 b3bf
00000100: 2960 6ebf f453 263f 4535 1ebe 01d3 ccbd
00000110: 50cb 463f f394 acbe 4f80 86be b835 ffbe
00000120: 3780 5a3f ce9b 8d3d 1e48 cc3c 4830 dc3e
00000130: a3b9 29bf 323f 033f ce45 a83b 3643 7cbd
00000140: 86cf ce3e 792a 11be fbee bfbe 164f ea3c
00000150: a903 6f3e bead c83d 2fbb 083f 2e1b d6bd
00000160: ac1a 1bbf 2fef 07bd 5bff 1bbe 6097 993d
00000170: 6a9b cebd 7485 09be b0b2 043e 698a 4cbe
00000180: 86dd 1fbe 0e92 10be bd97 9e3c 749f e53b
00000190: b161 72bc 3e87 25be e474 2fbe 3a81 1ebd
000001a0: 36c0 e73c 93dc 4c3d 95ea 073e 945e bcbc
000001b0: fa8b 1f3d b9fd 72bc 964d 763d e338 fa3d
000001c0: 09db 03be 1124 59bd 138b cdbd 322c 54be
000001d0: 411e ccbe 6ae9 78be 6d53 963d 1767 0c3f
000001e0: 7b2a e8bd f954 febd 3024 e63e b2ce c1be
000001f0: 9e88 14bf 422d 1d3f 6163 ec3e 613b 243e
00000200: 7e55 04bf 5a0e 8cbe 8f2a c53e 8d82 b6be
00000210: a33d 46be 232c 893d 6e1d ee3e 9a9d 94be
00000220: 86da cd3f 7c3f bc3f 969b c83d 71ac 60be
00000230: 9e49 e13d 7510 63be 4c92 a23b 7f3d 7fbe
00000240: b872 04bf 2fca 25bf 7d6a 38bd 620d 8f3c
00000250: 0927 77bc 7a9f c5bc 23be 5bbc 4fa3 9cbd
00000260: 9aff 173e 17cf b7bd f275 85bd 45ac f0bc
00000270: fa5d c53d 520d 17be e294 ca3c 28e3 72bc
00000280: b985 02bc 2cff 65bd 70d2 753c 5ec2 8ebd
00000290: ab9c cf3d 8259 10be e401 313c 569a b63d
000002a0: de7d c4bd 90e2 5abd 5d29 c53c c053 02be
000002b0: 2c4c 573c 15e8 c63e 7e70 28be cda3 8bbd
000002c0: 9bd4 57bf 519a 653e 9afc 8dbf b1da bbbe
000002d0: f433 d13c c7e9 bfbe ef49 b6bd 2ca9 813e
000002e0: 9376 0c3f 64ed 04bf ba5a acbe 1a66 e13c
000002f0: a3e6 95be 4566 2f3e ade0 ffbe 5070 a0be
00000300: 678a c33d 745e 143d 15bb df3e 39c7 41be
00000310: 9cbd 88be f5a8 683e f7e0 7b3e 6267 463d
00000320: c80d dd3d fccc 0e3f 14de 4dbe ce33 b2ba
00000330: b5e6 3abd 2843 303d c279 aebc c999 3c3c
00000340: 56d5 443d 1b32 fbbd 0264 9f3d 2711 44bd
00000350: 7dc1 88bd c0bf 863d 4482 6abd 8323 843c
00000360: 4ea2 1fbd 29e5 8fbc bf09 dcbc 2bec 4d3d
00000370: 8218 c73d 832a 1e3d 83fc 983b 16e3 f5bc
00000380: 7615 2d3d 4893 ac3d e46d 8fbd feb3 35bd
00000390: 431d 6e3e 28f7 bc3e 0a91 34bf 2b3d 043d
000003a0: 85fe 27bb 7463 933f 365e 70bf 37af f6be
000003b0: f94c 09bd d6c6 c43f df2c 733d 3d34 113e
000003c0: 11dd 213e 2f28 94be adee 6bbe 7600 b7be
000003d0: d481 bb3f d56b 46bf e5de cebe 0fa6 963d
000003e0: 5f82 023e deb9 19be 9959 76bf b8b4 23be
000003f0: 5c35 273d f450 95be 9156 283d 757d 903d
-0.40940708 -0.32628834 0.3043378 -0.20016167 0.101092145 -0.37906143 0.13287108 -1.0960647
0.44404864 -0.50248235 -0.37480256 0.9814333 0.34639522 0.08124941 -0.20105657 -0.32583585
-0.43131515 0.41873926 -0.056494266 -0.11414821 0.054436136 -0.026821004 -0.012389464 0.16151775
-0.102235 -0.39443168 -0.11685401 -0.11543394 -0.2762611 -0.040351074 -0.031885806 -0.5655482
-0.006961042 0.052862242 -0.042735 0.062474463 -0.15846767 0.08959278 -0.10458404 0.035938974
-0.021750798 -0.035399694 -0.024213284 0.08161233 -0.054388452 0.08958697 0.043306462 -0.043536805
-0.033926275 0.10928511 -0.06570568 0.04302716 0.041193094 -0.012074349 -0.07621568 0.0958137
0.03717034 -0.019992175 -0.12565419 0.057295326 -0.18275818 -0.11280506 0.74331915 -1.4009776
-0.9311548 0.6497185 -0.15450008 -0.10001183 0.7765398 -0.3370739 -0.26269767 -0.49845672
0.8535189 0.06914483 0.024936732 0.43005586 -0.66298884 0.51268303 0.0051352745 -0.061587535
0.40392703 -0.14176358 -0.37487015 0.028602164 0.2334124 0.09798764 0.5341062 -0.10454403
-0.60587573 -0.033187088 -0.15234129 0.074995756 -0.10088237 -0.13429815 0.12958789 -0.19974674
-0.15611848 -0.14118215 0.019359464 0.0070075337 -0.014793799 -0.16164872 -0.17134434 -0.03869746
0.028289896 0.050015043 0.1327308 -0.022994317 0.03895185 -0.014831 0.060132585 0.122178815
-0.12876524 -0.05301291 -0.10036292 -0.20719984 -0.39866832 -0.2430779 0.07340131 0.548448
-0.113362275 -0.12418551 0.44949484 -0.37853009 -0.5802096 0.6139718 0.4616957 0.16038276
-0.5169295 -0.273547 0.38509032 -0.35646477 -0.1935945 0.066978715 0.46506828 -0.2902649
1.6082313 1.4706874 0.09795301 -0.21940781 0.110003695 -0.22174247 0.0049612876 -0.24925803
-0.51737547 -0.6476163 -0.04502343 0.017462436 -0.01508499 -0.024123896 -0.013412031 -0.07648336
0.14843598 -0.08975046 -0.06516637 -0.02937902 0.09637065 -0.14751175 0.024729196 -0.014824666
-0.007966452 -0.056151554 0.0150037855 -0.06970666 0.10137304 -0.14096645 0.010803673 0.08916156
-0.0959432 -0.053438723 0.024067575 -0.1272726 0.013140719 0.3884894 -0.16449162 -0.06818352
-0.84308785 0.22422148 -1.1092713 -0.36690286 0.025537468 -0.37483045 -0.089008205 0.2532438
0.5486843 -0.5192473 -0.3366297 0.027514506 -0.29277524 0.17128856 -0.49976102 -0.31335688
0.095478825 0.03622289 0.4369742 -0.18923654 -0.2670716 0.22720702 0.24597536 0.048438437
0.10793644 0.5578153 -0.20104247 -0.0013595761 -0.045630176 0.043032795 -0.021298293 0.011511275
0.048055016 -0.12265416 0.07782747 -0.04786792 -0.0667753 0.06579542 -0.057253137 0.016130215
-0.038973145 -0.017565327 -0.026860116 0.050274055 0.09721471 0.03861476 0.0046687736 -0.03001551
0.042256795 0.08426529 -0.07003382 -0.044361107 0.2325335 0.36907315 -0.7053381 0.032284897
-0.0025633883 1.1514726 -0.93893754 -0.48180553 -0.033520672 1.537318 0.059368964 0.14180084
0.15806986 -0.28936908 -0.23040266 -0.3574254 1.4648995 -0.7750829 -0.4040443 0.07355892
0.12745045 -0.15012309 -0.96230465 -0.15986907 0.04082237 -0.29163325 0.04109818 0.07055179

bias f4 [512]
00000000: a44e 6cbf 35c6 0dbf 25e2 b2bc 24d6 9b3e
00000010: c63f b1be 49f6 bf3e fd09 973e 7751 b1be
00000020: 7fe5 8ebe aaee b5be 0ab0 e4bd c2d5 f2bd
00000030: 4669 a6be f9b7 12be b7b5 d23e cefd a63d
00000040: 1b3f 663e ec12 c73d 116c 373e 2cb1 b13d
00000050: e1bb 853d 57d0 c9bd 4d87 f1bd f16f 6fbf
00000060: af20 d43d 83cb f43e 1026 863e 702d 803e
00000070: 0add 15bf c276 86bd 3cf3 3fbe 8fdf 0cbf
00000080: 120f 62be 17f7 b7bd 3503 bcbe 2730 c03d
00000090: 2ac0 89be 62b4 9cbe fcb1 8dbe 303f 0bbf
000000a0: eedb 07bf 8719 a2be 15f4 16bf 3f2d f3be
000000b0: 369c 9fbe b42f f3be 0f62 5d3d ad5d 19be
000000c0: 58a4 933e 2c89 803e f03c 0cbe d925 2a3e
000000d0: 2cbe a6bd 81e0 463e 2561 51be 4550 c5bd
000000e0: df5a 05bf fc48 9abe 1b29 3dbd d2f8 32be
000000f0: c54f bdbd fe08 193e 831f 89be 741c 553e
00000100: 3f96 6d3e cac2 4fbe d62a 4c3d e824 12bf
00000110: 6a20 f3be 2b4c 093d 4044 463e ea60 3b3e
00000120: 96d6 fbbe ab03 95be 3faf 92be 3930 dabe
00000130: 4f16 52be 47f0 0dbf f3e5 83bd 3457 dbbd
00000140: 0714 09bc 624d 26bd f06e 2cbe de16 43bf
00000150: cbc6 843e d47b debe e361 30be 7af0 bd3e
00000160: 68cc eabe 91ab f9bd e825 9abd 6424 9e3d
00000170: 94c3 8b3e abd7 3fbf d3d3 1f3d 4858 a9bc
00000180: 1347 17bf c1fa 5fbe 811c 10bf 367f 32be
00000190: 08ad 99bd e7c1 103d 4e6e 07bf 07ce aebe
000001a0: 8914 a3be ecf9 42be e9d8 bfbe 963d 17be
000001b0: b850 05bf f263 2cbe 6647 a9be 3dcd c9be
000001c0: 9df7 07bf 1855 1bbf ff02 67be ca62 423e
000001d0: b553 983e 28dc 53bc 66ed ab3c 1e4f 11be
000001e0: 6ca7 8a3e 2007 a5be 79d9 12be c863 ebbe
000001f0: cac4 0fbf d40e a73e f2af cabe 2e16 df3e
00000200: df0a 01bf 1bc2 953e f764 34be 1a1e a7be
00000210: c4d2 19bf e7a8 adbe 8f67 3a3e 85a1 4f3e
00000220: 1f6f 02bf f644 edbd c59d 1abe dda6 523e
00000230: 64e9 63be d69f 89be 309d bc3e c9c2 e53d
00000240: 0939 a93e 23ef 2fbe e3c0 1abe 4db3 7ebe
00000250: b79c 12bf 0dfe ecbe 3b93 d2be cb0e c8bd
00000260: ea2c b8be 79b9 ca3d cf74 b1be b4b2 023e
00000270: 03b3 a43e 5084 243d b3c2 b63e f53b 80be
00000280: 8cb1 20be 11b1 3abf c58d 05be 9ba8 d5bd
00000290: d059 4e3d 9482 98bc aacf 983e a6d3 bbbc
000002a0: 5398 b03d bb5d 083e ea6b 0f3e a671 8b3e
000002b0: 73a3 0abf 2b24 a2bb c84d ae3e dc62 46be
000002c0: 243d ebbe 4355 a03e b57b 03be acae 473e
000002d0: 7599 7c3c 1ec2 653e b203 993e f16e 87be
000002e0: d6cb cdbe 6989 15bf aac5 f4bd 0452 c33e
000002f0: 2ce0 1cbd cd03 cdbe 16ac 7cbe 9b95 a7be
00000300: 09a9 d03d 5e38 983e 4273 973e 994b d23d
00000310: 5a73 4bbe df98 4c3e 40ff 4b3e af73 ff3d
00000320: dcf9 c9be 6902 a6be a5f9 1fbe ce1b d5bc
00000330: 9191 e5be dddc 7ebd f01d 9b3e db38 61be
00000340: 44ac 0b3e 8383 3e3d 880e fc3d 176d 703d
00000350: 6b25 5ebd 5302 0ebd fcc1 9bbe 36f8 cb3e
00000360: c407 e2be 22d4 853e 89e0 ad3d 3b20 09bf
00000370: 120c f2be 4e0b b73d 959f 40be eb01 833e
00000380: b060 cbbc 55f7 4abd 9f7b 8fbe d84b 6dbe
00000390: 671a 1c3b 5398 10bf 6aaa d43e 367f 1cbe
000003a0: 3579 bdbd 54c3 8d3e c279 fbbe 0a57 ddbe
000003b0: f9e3 77be 57fa 2abe 1fb7 5cbe f835 e9bc
000003c0: 9861 4dbf 9a16 ea3c 4e1d bc3e 39cc 93be
000003d0: 7039 1c3e 5a00 f73c fb38 dcbe aefe a7bd
000003e0: 38bb 833d e55d 78be 1880 a9be d97b efbd
000003f0: 8243 e5be f550 aa3d da82 09bf 36e9 0f3e
-0.92307496 -0.55380565 -0.02183635 0.30436814 -0.34618968 0.37492588 0.29499808 -0.34632465
-0.27909467 -0.3553365 -0.11166389 -0.11857177 -0.32502192 -0.14327992 0.41154262 0.08153878
0.2248501 0.09720406 0.17912318 0.08676371 0.06529976 -0.09854191 -0.11793385 -0.93530184
0.103577964 0.47811517 0.26200914 0.25034666 -0.58540404 -0.0656562 -0.1874513 -0.55028623
-0.22076061 -0.089826755 -0.36721197 0.09384184 -0.26904422 -0.3060637 -0.27674854 -0.5439329
-0.5306996 -0.316601 -0.5896619 -0.47495458 -0.31173867 -0.47497332 0.054048594 -0.1497714
0.28836322 0.25104654 -0.13695121 0.16616 -0.08141741 0.19421579 -0.20447214 -0.09634451
-0.52091783 -0.30133808 -0.04618178 -0.1747773 -0.092437305 0.14944836 -0.26781854 0.20811635
0.23201846 -0.2028915 0.04984554 -0.57087564 -0.47485667 0.033519905 0.19361973 0.18298689
-0.49187154 -0.2910436 -0.28649327 -0.42614916 -0.20516323 -0.5544476 -0.06440344 -0.10709992
-0.008366591 -0.04060114 -0.16839194 -0.7620677 0.25932917 -0.43453848 -0.17224841 0.37097532
-0.45859075 -0.12190927 -0.07526761 0.07721785 0.27297652 -0.7493846 0.03902037 -0.020671979
-0.59092826 -0.21872999 -0.56293494 -0.1743134 -0.07503706 0.03534117 -0.52902687 -0.3414156
-0.31851605 -0.1904065 -0.37470177 -0.14769587 -0.5207629 -0.16835001 -0.33062285 -0.39414397
-0.531122 -0.6067672 -0.22559737 0.18982998 0.29751363 -0.012930907 0.020987224 -0.14190337
0.27080858 -0.32231998 -0.14340772 -0.45974565 -0.5615965 0.326285 -0.3958736 0.4357161
-0.5040721 0.29249653 -0.1761664 -0.32640153 -0.6008723 -0.33917925 0.18203567 0.20276459
-0.5095081 -0.11585419 -0.15099247 0.20571466 -0.22257 -0.26879758 0.36838675 0.11218793
0.33051327 -0.17181067 -0.15112643 -0.24873085 -0.5727038 -0.46287575 -0.41127953 -0.097684465
-0.35971767 0.09898657 -0.3465943 0.12763482 0.32167825 0.040165246 0.3569542 -0.25045744
-0.15692729 -0.7292643 -0.13042362 -0.104325496 0.05037862 -0.018616952 0.29845935 -0.02292807
0.086228035 0.13317005 0.1400601 0.27235144 -0.54155654 -0.004948159 0.34043717 -0.1937365
-0.45945084 0.3131505 -0.12840159 0.19500226 0.015417446 0.22437331 0.29885632 -0.2645183
-0.40194577 -0.58412796 -0.11951764 0.3814851 -0.038299724 -0.40041962 -0.2467502 -0.32731327
0.10188491 0.29730505 0.29580122 0.10268325 -0.19868222 0.1998019 0.19921589 0.12473237
-0.3944844 -0.32423714 -0.15622576 -0.026014235 -0.4483762 -0.06222235 0.30296278 -0.21994345
0.13639933 0.046512138 0.12307459 0.058697786 -0.054234903 -0.034670185 -0.30421436 0.39837807
-0.4414655 0.26138407 0.08490092 -0.53564805 -0.47274834 0.08937703 -0.18810876 0.255874
-0.024826378 -0.04955228 -0.28024003 -0.23173463 0.0023819448 -0.5648243 0.41536266 -0.15282902
-0.09251634 0.27688086 -0.4911633 -0.43230468 -0.24208058 -0.1669706 -0.2155423 -0.028468117
-0.8022704 0.02857523 0.36741108 -0.28866747 0.15256286 0.030151535 -0.43012223 -0.08202873
0.064321935 -0.24254568 -0.3310554 -0.11693544 -0.44778067 0.083162226 -0.5371529 0.14053807

weight f4 [256, 512]
00000000: c363 cd3e 3457 23bd 0b89 d8ba 2880 fdbd
00000010: 23ea 4ebc 3c01 873e 3dce 813d ceac e9bc
00000020: b2a6 0bbe ef0b 273e bf48 c53d 506e 97be
00000030: 04e0 a1bd 1fbf a0bd 2a2f ef3a 3888 65bb
00000040: 419f 3ebb c62a 483d a06e b9bd d01d 19be
00000050: d602 98bc 05cc 7ebe f514 07be ed62 3c3e
00000060: 9cb3 5abe a303 b1be a722 11bd a3c7 b33c
00000070: 5586 bc3d d649 7fbd 6854 1cbe 41ff 753d
00000080: 4114 803d f522 bdbc c196 d13c 062c 04be
00000090: 9d1b b1bd 6686 543e 5c9f 4d3e 0eb6 193e
000000a0: 3277 6cbd 2183 59bb b52e 393e ecc5 d63e
000000b0: 075b b53d b924 833d 15a3 953d e2a8 1d3e
000000c0: ee87 f3bd 8c3b 1bbd 16d9 c03d de5f 73be
000000d0: 9c85 1b3e e235 2ebd 0877 483d c194 a03e
000000e0: f72f 7a3e 6bf3 363d cfa6 a13e bbd4 75bc
000000f0: c7fc 7abb e5c7 373e abde 15be 8c2f 6abd
00000100: 5b74 373d ac74 33be 96e4 9e3c 7465 433d
00000110: adc8 983e e0cf eb3d cc02 e5bd 293f 94bb
00000120: 8c43 0cbe 365a 373e dcb6 143e 06f7 793e
00000130: 83f4 2cbe 788e 933d 8306 8dbd 632d 813d
00000140: 9d0f 13be f5a7 2d3e f1f5 393d b54d d53e
00000150: 873f 9abe 3803 92bd 598f 3cbe d602 66bd
00000160: 4a5d d23e 1fd6 7a3e 242f b93d 653f 8c3d
00000170: d57b 783c c542 ef3d e576 0f3e ad5d c83d
00000180: 6c40 db3d c8bb 85bd 92fc 023e 310e b3bc
00000190: c416 4b3e ee3d 703e e3cb 6abd 1429 a0be
000001a0: 7ec2 e73c 8fd8 a3be 4fe2 733e d1ef 85bd
000001b0: 47ee 953e f1c9 bcbc 6bb5 763d 5a34 693e
000001c0: 90f7 9fbc c673 773d a113 863d 42e1 d83d
000001d0: 470e 283d b60b 38bd 010c dd3c e4c3 113b
000001e0: a70b 42be 1d55 4b3d 4a44 213e 4971 063e
000001f0: e0e4 8d3d f594 8dbd 3840 423e 89fd 103d
00000200: b132 8fbd b9dc 013d 098f 493e da03 873d
00000210: d47d 823e a4eb 853e 1054 0fbe 4934 64be
00000220: e8a2 393e 8e69 57be f01d 8ebe 6dbf 123e
00000230: f51a 18bd 656c 95be d523 733c 9191 4bbc
00000240: 2637 27ba 762d 8f3d 8c5c b5bd f48e 72bd
00000250: 729d a2bd dcc0 913e e484 9b3c 8b73 d2bd
00000260: c0b9 223e 7c8e 343e db96 fc3c c527 653b
00000270: 3309 e4bb f533 9a3d 31d8 35be fbf3 36bd
00000280: 745f 6fbe 7ebc c73d 824e 0bbe 0c59 06bd
00000290: 71f8 9b3e 38da 12be 4907 0b3e 943e 82bd
000002a0: d540 323d 79aa 51be ee8e 9abd 6735 413c
000002b0: 2938 0abd 9a7e 033e bfbd aabb fd90 f0bd
000002c0: ae94 09be 3613 49bd 6aea 853e 2562 92bd
000002d0: a1f7 653e 57f8 233e 01b6 083e fb45 01be
000002e0: 08f4 2a3e feba 713e 9792 f03d 37a8 f73d
000002f0: 4cf8 b53d 6d0c 1a3c 01d2 8abe 8bc5 3a3d
00000300: 515d 03be afe8 18be 12c8 be3d 96ea 3ebe
00000310: 52d8 77be efca b1bc 8f08 893d 472b a23e
00000320: f829 8fbd 63d1 bd3d 604d a8bc 498d 06be
00000330: 04f8 6a3e 3823 9fbd fdee 95bd 786d 653e
00000340: bab1 8abe 555c a83d 4d76 68be 921f 19be
00000350: 32d8 b5be 22fb 3bbe c93e 613c 5717 05be
00000360: 9fa1 463e 30a4 903c 08ac 9ebd d3fe 043e
00000370: 5218 b73d 4f1a 27be 4c79 07be b3b5 923d
00000380: 3b13 593e 384d e8be 945c 54be 4fe0 98be
00000390: 7f0f 20be fb56 74be 407a 083d ab2c 4c3d
000003a0: 950e f2bc 7c07 a2bd 3785 503e ef2f 0d3e
000003b0: 2f3d 703e a4f8 01bd 8873 1c3c 3c9e c4be
000003c0: 8f04 4d3e 2a4f 563e bf9e 6cbe 3679 ef3c
000003d0: 4961 8abd 35cc 3dbe d3d8 f93d 3aab c1bd
000003e0: f3c2 e1bd 3a2b 313e 5a9f e33c 2eed d23c
000003f0: 1fca 8ebd a9b9 6d3c 480f 863e ff75 853e
0.40115175 -0.039878085 -0.0016520334 -0.123779595 -0.012629065 0.2636813 0.06338165 -0.028524783
-0.13637808 0.16313146 0.09633016 -0.2957635 -0.07904056 -0.078489535 0.0018248309 -0.003502382
-0.0029086622 0.048868917 -0.09054303 -0.14952779 -0.01855604 -0.24882515 -0.13191588 0.18397112
-0.21357578 -0.34573087 -0.035433438 0.02194578 0.09205309 -0.062326275 -0.15266573 0.060057882
0.06253863 -0.023087958 0.02558458 -0.12907419 -0.08647845 0.20754394 0.20080322 0.15010855
-0.05773086 -0.0033189731 0.18084224 0.41947877 0.08855253 0.06403489 0.07306496 0.15396455
-0.11891161 -0.037898585 0.09416406 -0.23767039 0.15187687 -0.042531855 0.048941642 0.3136349
0.2443236 0.044665735 0.31572577 -0.015004332 -0.003829764 0.17947347 -0.14635722 -0.05717425
0.0447887 -0.17524976 0.019396108 0.047704175 0.29840603 0.115142584 -0.11182174 -0.004524131
-0.13697642 0.17905506 0.1452288 0.24410638 -0.16890149 0.07204908 -0.06886008 0.06307485
-0.14361425 0.16958602 0.045400564 0.41660848 -0.30126593 -0.0712952 -0.18414058 -0.05615505
0.410868 0.24495743 0.090421945 0.06848029 0.015166243 0.11682657 0.14010198 0.09783492
0.10705647 -0.06529957 0.1279166 -0.021857353 0.19832903 0.23461124 -0.057323348 -0.3128134
0.028290983 -0.3200116 0.23816799 -0.06539882 0.29283354 -0.023045512 0.060231607 0.22773877
-0.019527227 0.060413145 0.06546713 0.105898395 0.04102924 -0.044933043 0.026983263 0.0022242004
-0.18949758 0.049641717 0.15748706 0.13129152 0.0692842 -0.06913177 0.1896981 0.03539804
-0.069920905 0.03170464 0.1968347 0.065925315 0.25486624 0.26156342 -0.13996911 -0.2228557
0.1812855 -0.2103636 -0.27757215 0.14330836 -0.037135083 -0.2918426 0.014840086 -0.012424842
-0.0006378762 0.06991093 -0.088555425 -0.059218362 -0.079401866 0.28467453 0.018984266 -0.10275944
0.1589117 0.17632478 0.030833652 0.0034966331 -0.0069591044 0.07529441 -0.17758252 -0.04466627
-0.23376256 0.09752749 -0.13604167 -0.032799765 0.30462983 -0.14341056 0.13576998 -0.06359592
0.04351886 -0.20475186 -0.07546793 0.011792517 -0.033744965 0.12841263 -0.005210608 -0.11746404
-0.13435623 -0.049090587 0.26155406 -0.07147626 0.22457744 0.16012703 0.13350679 -0.12624352
0.16694653 0.23606488 0.1174671 0.12092631 0.088852495 0.009402377 -0.27113345 0.045598548
-0.12828566 -0.14932512 0.09315504 -0.18644175 -0.24203613 -0.021703212 0.066910855 0.31673643
-0.06990427 0.09268453 -0.020544708 -0.13139834 0.22946173 -0.07770389 -0.07320974 0.2240504
-0.2708872 0.08220736 -0.22701378 -0.1495345 -0.35516506 -0.18357518 0.013747879 -0.12997185
0.19397591 0.017656416 -0.07747656 0.12987833 0.089401856 -0.1631863 -0.13229865 0.071635626
0.21198742 -0.45371413 -0.20738441 -0.29858634 -0.15630911 -0.23861305 0.03331971 0.049847286
-0.029547969 -0.07911584 0.20363317 0.13787816 0.2346084 -0.031731263 0.009549029 -0.38401973
0.2002127 0.20928636 -0.23107432 0.029232603 -0.06756837 -0.1853493 0.12199559 -0.09456487
-0.11023512 0.17301646 0.027785946 0.025747862 -0.06972145 0.014509597 0.26183534 0.26066586

bias f4 [256]
00000000: 86a3 42be aace 48be 4b7a 0ebe 74d8 30be
00000010: 2a35 6fbe b29a 063d 3265 51be e901 92be
00000020: 94ea 98be 23ed 15be c08a 83be ceac d9bd
00000030: 84cc 0bbe e185 a5be cad5 e83c ea53 dbbd
00000040: 89fa efbd 732d 1a3c 7ad6 9abe a5ba 1bbd
00000050: d30a 0dbe 8673 02be e08d 293d 4412 a4be
00000060: 3542 d7bd be4b c0be 2b86 60be 0876 73be
00000070: 6ec7 07be 3f17 9a3d 6c84 b8bc b682 96be
00000080: 2b06 4cbe 5e58 9abb 5e8d 3fbe c4ac 7dbe
00000090: 3ad3 4bbe 29a7 3abe f2d4 a0be fd6c 12be
000000a0: 6106 61be c7cc adbe 14b0 24be f734 abbe
000000b0: 8ded fbbc 8466 a23d a86f 89bd 247e 5abe
000000c0: b6a9 aabe d7ed 87be 063b e3bd d81b 42be
000000d0: 7942 0abe c794 9dbe 96a4 e0bd ce03 21bd
000000e0: f97c 91be 5708 9cbe 5e99 ecbd 4cb3 743d
000000f0: 52b3 41be 7cbf b0be 35c1 2abe 49fc 6dbe
00000100: 206f 46bd e082 2dbe 5239 d73d d1c9 4abe
00000110: 5d8f 01bf 8a5f aabe f70e 18be b159 36be
00000120: 00d3 60be eaee cbbc fa5f 613d ae57 40be
00000130: a52d d6be a299 27be 2f7d 923d 12e0 43be
00000140: 2877 76be 7a57 3c3c 86cf 4b3d fee7 15be
00000150: 0c6e febe 8d8c c5be 47d3 d6bd e891 50be
00000160: 30a8 bfbd 00be 083d d69d 5cbe 5ed4 54be
00000170: 6bc6 a53d 7c5a 63be 3279 83be b87e 48be
00000180: e6f1 103d c4a0 57be cc7e 4cbe 0d53 d1ba
00000190: a295 8abe d912 82be 341b 0fbe e26a 0fbe
000001a0: 5b22 f13c 8ffd 04be e094 36bc 3402 9fbe
000001b0: 0ff5 9dbe 87e1 85bc d4fc 2ebe 5d34 20be
000001c0: 25af f0bd 644b 78be 010f 15be cff0 efbd
000001d0: b261 01be a351 2cbe 7af5 2b3d fdcc 84be
000001e0: 38d2 adbd d11d a5bd d272 05bd 5106 243d
000001f0: 5c1c 06be 3dc2 f8bd 2704 9abd b50c adbe
00000200: 838d 1abe 79f8 873e 3a25 17be 230b 73be
00000210: 9c5a 3f3d 90db 1bbe 37e7 26bd c865 ba3d
00000220: 041e 01be 8f3f 73be b337 473e 1eb4 a3be
00000230: beec d83d 84e3 51be bf55 41be b9bb 34be
00000240: 4cac 87be 4a88 96be 40bb acbe 293d 183e
00000250: ceca 313c b577 0ebe 2911 8ebe 6847 e7bd
00000260: 28b2 a2be 77f2 de3b 7c69 aabe 2d1b 68be
00000270: d14f 5fbe 6c81 35be 2bca 02be e11e 56bd
00000280: 9263 7dbe 2c90 0bbe a4ed a6bd f66b aabe
00000290: 6a81 bebe 2bec 05be 9ee4 9cbd 2c3c 5fbe
000002a0: c044 f6bd f362 c4bd 546c 39be 8afd 72bd
000002b0: 132e f7bd a4f5 16be d5f8 e5be af9e 35be
000002c0: c654 9d3d 526c 8abe f4a4 eabd e249 19be
000002d0: 896b 15be 3224 3cbe fd94 edbe f342 c23d
000002e0: 6f4b c9bd c5ac f03d d69d b4be 6d53 c9be
000002f0: 1de3 79be f156 8fbe 39a9 4ebc 9891 b13c
00000300: aea6 adbe 9157 9b3d 440b b13d a138 a5be
00000310: 0049 b6bd 430d f4bd 1230 343e 52fd 4fbe
00000320: 51d1 babe 9cc3 a0bb 0b4a 70be 9943 bebd
00000330: 5c1d 24be 6e72 a6be 579e 8fbe 5b4a 253e
00000340: 38fe 05be cb47 d9bd 0593 963b 387b 5bbe
00000350: ee76 2d3e 11b3 3dbe 3c25 8fbe a8d1 9bbe
00000360: 2604 90be 7177 45be 4ec0 3f3c 888a e2bd
00000370: c226 5abe 86bc 4dbe 7d3a 47be cab0 d7bd
00000380: 3623 483d d7af dbbd 8336 5fbe 9709 4fbe
00000390: c192 8dbe 8b4e 32be fb2e 17be c8c5 a0be
000003a0: f5a9 58be 4c1a 20be 0257 d3bd e9c0 5dbe
000003b0: dfc9 32be cd27 d23c eabc 27be 842b 56be
000003c0: 9392 a6bd fac7 a4be 724e 27be 9374 bfbe
000003d0: 8b35 8abe 7aaf 8cbe 8eb7 01be cbba 71be
000003e0: 9387 2abe 20fa 62be 0591 c5be 606d efbd
000003f0: c965 40be 79ca 82bd 5513 35be 4c22 8bbe
-0.19007692 -0.19610086 -0.13913839 -0.1727007 -0.23360124 0.032862373 -0.20448759 -0.28517082
-0.2986647 -0.14641242 -0.25691795 -0.10628663 -0.13652235 -0.32328704 0.028422255 -0.10709365
-0.11717708 0.00941025 -0.30241758 -0.038019795 -0.1377366 -0.12739381 0.04139507 -0.32045186
-0.10510675 -0.37557787 -0.21926181 -0.23775494 -0.1325967 0.07523965 -0.022524081 -0.293966
-0.19924228 -0.004710241 -0.18706271 -0.24772936 -0.19904795 -0.18227829 -0.31412464 -0.14299388
-0.2197509 -0.33945295 -0.16082793 -0.33438846 -0.030752921 0.079297096 -0.0671075 -0.21337181
-0.33332604 -0.26548645 -0.11095242 -0.18955934 -0.1350192 -0.3077757 -0.10968892 -0.03931027
-0.2841566 -0.30475113 -0.1155269 0.059741303 -0.18916062 -0.3452109 -0.16675265 -0.2324077
-0.04844582 -0.16944456 0.1050898 -0.1980355 -0.5060938 -0.33276016 -0.14849459 -0.17807652
-0.2195549 -0.024894197 0.05502317 -0.18783447 -0.418317 -0.163672 0.07152783 -0.19128445
-0.24068892 0.011495465 0.049758457 -0.14639279 -0.49693334 -0.38583794 -0.10489517 -0.20368159
-0.09358251 0.033384323 -0.21544585 -0.20784137 0.08094486 -0.22202486 -0.25678402 -0.1957959
0.035386942 -0.21057421 -0.19970244 -0.0015970186 -0.27067286 -0.25405005 -0.13975221 -0.14005616
0.029435327 -0.1298735 -0.011143893 -0.31056368 -0.30851027 -0.016342891 -0.17088634 -0.15644975
-0.11752156 -0.24247509 -0.14556505 -0.117158525 -0.12634924 -0.16828017 0.04198215 -0.25937644
-0.08487362 -0.08062328 -0.032580204 0.040045086 -0.13096756 -0.12146423 -0.07520323 -0.33798757
-0.15093045 0.26556757 -0.14760295 -0.23734717 0.04671727 -0.15220475 -0.040747847 0.091014445
-0.12609106 -0.23754714 0.19454841 -0.31973356 0.1059203 -0.20496947 -0.18880366 -0.17649736
-0.2649864 -0.29400855 -0.3373661 0.14867081 0.010851575 -0.13912852 -0.27747467 -0.112929165
-0.31776547 0.0068038064 -0.33283603 -0.22666617 -0.21807791 -0.17725152 -0.12772433 -0.052275542
-0.24745014 -0.13629216 -0.08150795 -0.33285493 -0.3720811 -0.13078372 -0.07660793 -0.21800297
-0.12024832 -0.095891856 -0.1810773 -0.059323825 -0.12069335 -0.14742142 -0.44916406 -0.17736314
0.07682185 -0.27035767 -0.114572436 -0.1496959 -0.14591803 -0.18373182 -0.46402732 0.09485426
-0.09828841 0.11751703 -0.3527667 -0.3932146 -0.24403043 -0.2799602 -0.012613588 0.02167587
-0.3391623 0.07585061 0.08644727 -0.32269767 -0.089006424 -0.11916592 0.17596462 -0.20311478
-0.3648782 -0.004906131 -0.23465745 -0.09290237 -0.16026825 -0.32509178 -0.2805049 0.16141646
-0.13085258 -0.106093965 0.004595163 -0.21433723 0.169399 -0.1852534 -0.27958095 -0.30433393
-0.28128165 -0.19283845 0.011703564 -0.11061579 -0.21303847 -0.20091447 -0.19455905 -0.10531767
0.048861705 -0.10726898 -0.21798138 -0.20218502 -0.27651027 -0.17412774 -0.14764015 -0.31400895
-0.21158583 -0.15635031 -0.1031933 -0.2165562 -0.1745982 0.025653744 -0.16380659 -0.20915037
-0.081334256 -0.3218382 -0.16338518 -0.37393627 -0.26993975 -0.27477628 -0.12667677 -0.23606412
-0.1665328 -0.22165728 -0.38587204 -0.116907835 -0.18788828 -0.06386275 -0.17683156 -0.27174604

weight f4 [128, 256]
00000000: 9d62 35be ec75 9fbc 5bb3 d1bd 4dee 6cbe
00000010: 8802 35bd 938a 0d3d 3192 24bf 9f4b c5bd
00000020: e3f8 b03c 3653 283c 1a1f 003d 073d a23d
00000030: 7315 ccbd e57a 893d ba93 11be bda7 24be
00000040: 3032 e33d 91a1 14be ca6a ecbe 7f6f 05be
00000050: f823 ff3b f764 95be f2e2 cebe 2e14 56bc
00000060: f0ef 473d 9ae8 ef3b 3f06 573d 245f 23be
00000070: 6e6a 3abe 2c86 d8be 723d c03b a8f1 d9bd
00000080: 89eb e3bb 410d 16bf ab42 06bd e44b 9a3e
00000090: dd2a 47be cecd d83d 9062 603e f913 333d
000000a0: cda4 083d e12e a63d 9030 66bd 74e2 cc3e
000000b0: 410c 8dbe e50a 6abe faa7 2e3e 4e90 063e
000000c0: 60ac c43c 51c0 073e 6582 e83c ffe7 713d
000000d0: 0be3 673d 221f 703e 6b85 8d3d dd3f 96be
000000e0: f81b 1abe dc3f 1fbe c7fd 3c3e 6b29 5d3d
000000f0: a918 c73c a264 3b3d 24a7 003e 6f4a b13e
00000100: 3f4d 6ebe 98e4 543d c91c 21bb 6994 c53c
00000110: 4f60 9ebe 5c7a 24be 51dd bb3d 9ff3 6e3e
00000120: 7ca8 7fbd 0bd2 953e 277d 9f3d a2b6 90be
00000130: 49d8 883e 8966 8bbd d8b0 923e fdf8 413c
00000140: d892 ec3d 27a3 12be 3725 0fbe dc41 6d3e
00000150: c43f f4bc 161a 5d3d b95c 653e e808 033d
00000160: 3868 26be 05ad 3cbe ccc8 17bd 705c 36bd
00000170: 6c6a 07be d1eb 1f3d c7c2 0bbc 481d 44be
00000180: 2ae4 0fbf fa8a 29be c8fc 2b3e 3e22 d43c
00000190: 766c dbbb 7434 7abe 29db 12bc 24b8 0bbe
000001a0: dd5f 523d 0e75 cfbc a296 b3bd 2497 1ebe
000001b0: 89a0 a03e 4d35 b3bd 65db cd3c 56e0 133e
000001c0: 6018 013d afd9 dabd 69f8 69bd caf5 003d
000001d0: 9997 69bb 3045 15be d869 abbd f40a e13d
000001e0: 6311 ec3c 27f3 4dbd 529f f4bd ed70 16be
000001f0: 5318 15bd d680 7b3c eaf2 b03c f44f 643e
00000200: 97b0 673d 6391 98bc 2716 22bc 6187 473e
00000210: 48ff 633e c6d4 5b3e f3ef a13d 75de c5bd
00000220: 4d1a b9be 893b 393d ba6b 883d 2fbe e9bd
00000230: 8c65 19be 56d3 2a3c 2097 893e a1e5 6ebe
00000240: 645c 6f3d 9241 943d 4e06 3c3e 9798 babc
00000250: 3015 0f3e 6c2a 94bd 8966 3e3e 72b1 9c3d
00000260: 715b 533c a338 6ebe 0a72 2d3e 5c7d 83be
00000270: 3162 47be 39ab 303e 0cf6 d93d be8f 993e
00000280: 0a63 e63d b9b9 90bd 0c1a ecbc c7de c33b
00000290: 2495 623e 1b2f 4fbe e428 213e a44e 213d
000002a0: 999d 5fbd 26a8 2abe c5d6 403d 230f 2c3c
000002b0: 42c7 43be e86e 6c3e e621 0bbd 908a f33d
000002c0: 9353 193d b3c7 593e b26d a5be ee43 9fbd
000002d0: deec 1fbe 0ce9 24be 2f01 e7bc 8605 4dbe
000002e0: 7b6a 16bd 623d 8b3b ee83 dc3c 30b8 07bd
000002f0: 111e 963d add2 3dbe ee35 22bd 2dfe 7bbc
00000300: acf5 88be 7172 b8bc e4f2 b1be b1af 973e
00000310: ede1 403d 1779 363e 01d7 473c 5277 1d3e
00000320: 6e04 6b3e d2bb 80bd fb37 5b3c 3b41 083e
00000330: d66f bfbe b03d 96bb e0c6 d73c d8d3 9bbd
00000340: e46c a23c 1e2c 96be dba8 7d3c 1e0a 453e
00000350: 1d20 a3bd add0 763e b555 ad3d 9baf 223e
00000360: 692b 9c3d bd69 7ebe bcd1 b9be 89f8 84be
00000370: 55f4 d5be 618b 5ebe 71e7 90be 0158 a6bd
00000380: bc67 1d3d 31f6 35bd 365c b73c 686a 8ebd
00000390: af75 73bd 8376 e5bd 5704 38be 3a67 eb3d
000003a0: cb67 b23d 018c 6d3d 26ed b7bd eb79 e43d
000003b0: 39e1 803e 9aa6 563d e97c bdbe e671 c73d
000003c0: 0b74 8dbd 75fe 0fbc be19 c23d 3df6 a63e
000003d0: c927 5c3d 13b1 10bd f24d a9bd d152 5bbe
000003e0: 7ed7 233e 8f33 4b3e 3b54 f63d 4a25 e1bd
000003f0: 87b9 09be 6682 f8bd 7180 513d 9b27 20be
-0.17713399 -0.01946541 -0.102392875 -0.2313778 -0.044191867 0.034555983 -0.6428557 -0.09633564
0.021603053 0.010273745 0.03127966 0.07921796 -0.099650286 0.067128934 -0.1421651 -0.16079612
0.11093557 -0.14514758 -0.46175224 -0.13030814 0.00778627 -0.29178593 -0.4040752 -0.013066335
0.048812807 0.0073214294 0.05249619 -0.15954262 -0.18204662 -0.42289865 0.0058667 -0.106417954
-0.006955568 -0.58613974 -0.032778423 0.30136025 -0.19449945 0.10586129 0.21912599 0.04372022
0.03336029 0.0811441 -0.056198657 0.4001652 -0.2754841 -0.22855718 0.17056265 0.13140985
0.024007976 0.13256957 0.02838249 0.05905914 0.05661301 0.23449376 0.06910213 -0.293456
-0.15049732 -0.15551704 0.18456183 0.053994577 0.024303751 0.045750268 0.12563759 0.346271
-0.23271655 0.051975816 -0.0024583808 0.024118619 -0.30932853 -0.16062301 0.09173072 0.23335122
-0.06241654 0.29261813 0.07787543 -0.28264338 0.26727512 -0.068066664 0.28650546 0.011839149
0.11551446 -0.1432005 -0.1397904 0.23169655 -0.029815562 0.053979956 0.22398652 0.031990916
-0.16250694 -0.18425377 -0.03705673 -0.04452175 -0.1322419 0.03904325 -0.008530325 -0.19151795
-0.56207526 -0.16556922 0.16795647 0.025895234 -0.006696279 -0.24434072 -0.008963385 -0.13644463
0.051360954 -0.02532437 -0.08768965 -0.15487343 0.3137248 -0.08750401 0.02512903 0.14441046
0.031517386 -0.10686051 -0.057121668 0.031484403 -0.0035643338 -0.14577174 -0.083697975 0.10988417
0.028816884 -0.050280716 -0.119444504 -0.14691515 -0.03640015 0.015350541 0.021600205 0.22296125
0.056564894 -0.018624013 -0.009892977 0.19485237 0.22265351 0.21467885 0.07907095 -0.09661571
-0.36152878 0.045222793 0.06661172 -0.11413228 -0.14980143 0.010426363 0.26873112 -0.23329784
0.05843772 0.07239069 0.1836178 -0.022777839 0.13972926 -0.07234654 0.18593802 0.076510325
0.012900219 -0.23263793 0.16938034 -0.2568158 -0.19471051 0.17252816 0.10642633 0.2999248
0.11249359 -0.07066674 -0.028821014 0.005977485 0.22127205 -0.20232813 0.15738255 0.03938164
-0.054593656 -0.16665706 0.04707982 0.010501656 -0.1911898 0.23089182 -0.033967875 0.11891663
0.03743322 0.21267585 -0.32310253 -0.077766284 -0.15617701 -0.16104525 -0.028198807 -0.20021638
-0.03672264 0.0042492608 0.026918378 -0.03313464 0.073299535 -0.18537398 -0.039602213 -0.015380424
-0.26749933 -0.022515507 -0.34755623 0.2962623 0.04709046 0.1781963 0.012197257 0.15377548
0.22950909 -0.06285824 0.013380046 0.13306133 -0.37390012 -0.0045849904 0.026339948 -0.07608765
0.019827314 -0.29330534 0.015482153 0.1924214 -0.079651095 0.24103041 0.08463613 0.158873
0.07625467 -0.24845023 -0.36292827 -0.25970867 -0.41787973 -0.21732856 -0.28301576 -0.08122254
0.038429007 -0.04442424 0.022382837 -0.06953889 -0.059438404 -0.11204245 -0.17970406 0.11494298
0.08711203 0.057994846 -0.08980779 0.111560665 0.2517183 0.052404977 -0.3700936 0.09738521
-0.06906899 -0.008788695 0.09477566 0.3260974 0.05374888 -0.03532512 -0.0826682 -0.2141831
0.16000172 0.19843887 0.120277844 -0.109934404 -0.1344968 -0.121342465 0.051147882 -0.15640108

bias f4 [128]
00000000: b04a d8bd aa1c 50be a6fd d6be 384d 56be
00000010: c9a6 61be b5d6 0cbd b9ad 8abe c95a b3bd
00000020: fc0c 30bd 827d 65be 73a3 d2bc d7f3 bcbe
00000030: 3ab3 0ebd f7be 1fbe 9309 ebbd 60fd f33b
00000040: bcf2 8c3d 707c b4bc d2a0 fdbd c109 32bc
00000050: c193 0bbd 2998 cd3b 7142 33be cb2f 7839
00000060: 3110 60be cc73 c5bc dcbb beba 5227 653c
00000070: f442 d7bd b45a 06be e708 8bbe 1714 b23c
00000080: 4f14 2abe 9202 a5bd fa4b fbbd ead2 73be
00000090: e4f2 cebd 61c0 29bd 6204 5c3c 4e2a 00bd
000000a0: cf89 3dbd b59a a3be 85bd bdbe a984 0dbe
000000b0: f9d0 17bd fb48 f5bd 3818 c9ba 1f01 6d3d
000000c0: a30b aebe e084 6cbe e7ad 2abe 3afe 9a3c
000000d0: b22e e73b e9bc bbbd 5510 11bd be52 a2be
000000e0: c49c a6be f273 1dbe 5a1f 47be 1947 0cbe
000000f0: b263 aebe eff0 b8bd 28a1 cabd ee4a 8dbe
00000100: 7676 24be 1ff0 c2bd bc5c 3ebe 948f c0be
00000110: 168c 1cbe c62c 9bbe 255f 97be 7dfb 60be
00000120: fb4e 6ebe 7707 5bbe 6aa9 01be d9ff 68be
00000130: 0c19 d4bd 2e9e 9cbd 93bf 9dbd c800 32be
00000140: 7f3e 76be 8300 f9bd 509d 10be a3f5 03be
00000150: 9716 8ebe 3393 4cbe 9943 32bd d465 bbbd
00000160: d752 88bd a323 d0bd 3f4c 65bc 2462 e03b
00000170: 3d96 c5bd 83d8 90be 0542 15be 2aea 1cbe
00000180: b602 63bd ac1e 40be 368e 1cbe 8928 90be
00000190: 35b2 8e3e 3f34 18be 0e9c 0bbe c4fc 38be
000001a0: 37c0 84bd 2aee 03bd d93d e6bd a289 9cbd
000001b0: 5364 7dbe f5ff e4be 8de0 63be 09d5 01be
000001c0: a6f5 03bd f767 96bd 04c8 26bc 3f06 2fbd
000001d0: d8ef f3bd 751f cbbd eebc 49bd 91eb 19be
000001e0: eeba 09be 3bd3 b9bd 2669 5abe 8655 2cbe
000001f0: bb8c 4fbc 5183 05bd 39aa 2fbe cf1c 62be
-0.105611205 -0.20323434 -0.41990393 -0.20927894 -0.2203628 -0.034384448 -0.27085665 -0.0875755
-0.042981133 -0.22411159 -0.025712704 -0.36904785 -0.034838893 -0.15600191 -0.114764355 0.007445976
0.068822354 -0.022031993 -0.1238419 -0.010866583 -0.034076456 0.0062742424 -0.17505814 0.00023668927
-0.21881177 -0.024103068 -0.0014551836 0.0139864255 -0.10510817 -0.13120538 -0.2715523 0.021738095
-0.1660931 -0.08057131 -0.12270351 -0.23810926 -0.101049215 -0.041443232 0.013428779 -0.031290345
-0.046274003 -0.3195397 -0.37058654 -0.13820137 -0.037064526 -0.119768105 -0.0015342301 0.057862397
-0.33993253 -0.23097563 -0.16667901 0.018920053 0.007055127 -0.09166891 -0.035415966 -0.31703752
-0.32541478 -0.15376261 -0.19445553 -0.13698997 -0.34060436 -0.090303294 -0.09894019 -0.2759623
-0.16060814 -0.09518456 -0.18590063 -0.3760954 -0.15287814 -0.30307597 -0.29564777 -0.21970935
-0.23272316 -0.21389566 -0.12662283 -0.22753848 -0.1035634 -0.07647358 -0.077025555 -0.1738311
-0.24047278 -0.12158301 -0.1412251 -0.12886672 -0.2775161 -0.19978027 -0.043521497 -0.091502815
-0.066564254 -0.10163047 -0.013995229 0.006847637 -0.09647796 -0.28290185 -0.14575966 -0.15323702
-0.055422507 -0.187617 -0.15288624 -0.28155926 0.27870336 -0.1486368 -0.13633749 -0.18065172
-0.064819746 -0.032209553 -0.11242265 -0.07643439 -0.24745302 -0.4472653 -0.22253628 -0.12678923
-0.03221669 -0.073440485 -0.010179523 -0.042730566 -0.11910981 -0.09918109 -0.049252443 -0.15031268
-0.13450214 -0.09073492 -0.21329173 -0.168295 -0.01266783 -0.032595936 -0.17154779 -0.22081302

weight f4 [12, 128]
00000000: c18e 08bd 3250 4fbc be6b 283d 0068 4b3d
00000010: 298b 073d f8b1 3f3d 636b 9bbb 1173 7cbd
00000020: f5be 8c3d e4cf d6bc 7790 81bb 16b2 033e
00000030: e5b6 e03c 4a80 18bd 2b16 e0bc 2812 3ebb
00000040: 3b2d 84bd 0264 d03c 5b70 643c 7ffa 06bd
00000050: 64ad 26bd 7161 833c 3d5b b5bd 81b3 263d
00000060: 5e57 433d 8c74 823c f4d6 063e ffdd 3f3b
00000070: 9328 003c 2b21 9b3b f8d1 85bd 464b f4bd
00000080: 64a7 c1bb 82ba 1abc a1cf c33c 4b78 80bc
00000090: 73ae e5bc 7176 2dbc 9e73 2cbd f761 12bd
000000a0: 576d 983d 5446 8bbd 9059 84bd b09f 383d
000000b0: 4356 30be 6c73 60bc 87c6 23bb 32fc ca3b
000000c0: 1882 733d 4f7a 38bb 5c88 3bbc 5a62 1b3d
000000d0: 132c e7bc fe5f 073c 3f4d 84bd 0750 aabd
000000e0: 3273 f7bc bea6 6339 845e afbd 6cea 373d
000000f0: dd4f 173d 967d b13b 74be ee3b 9026 63bd
00000100: d86b f1bb 6faa 8b3c 9021 153c 6afc eb3d
00000110: e0b5 d23c baf9 32bb 773a b43c 0a32 853a
00000120: 2f40 b93b 207c 803d 538d e3bc 3bfa 2cbc
00000130: 9179 db3c 8e09 8b3c 43e5 61bc 10e7 f0bd
00000140: 5e69 323b 1a51 69bc 8f2e a83d 74dc a23d
00000150: 8ca9 64bc 03f4 43bd 9e33 c8bc 3dad 033d
00000160: 9b60 2fbd f7d1 a5bc aa88 b53c 4065 aabc
00000170: 23a1 053b 0ee9 44bc e35d c53b 5720 4c3d
00000180: b1fe 64bc 755a 99bb 025e 823d 143b 9abd
00000190: 640f 20bd e967 2c3c f1c4 cdbb 9081 e53c
000001a0: 9517 2dbd 290f 943c 4f4f 9e3c 7eb7 e4bb
000001b0: 5dd1 b43c 8fb0 46bd e0bd 1b3e e5d2 f4bc
000001c0: ff5e 66bd a540 0cbd c8fe 713c 1fe7 263c
000001d0: c316 ebbc a19a 903d 13f8 8ebc c7a7 66bb
000001e0: 08ad 38bc 79ec 643d c070 983d 4c90 13bd
000001f0: 4762 823d a4f5 813c 0c95 aa3c 9432 cf3d
00000200: 0c3c c53b bf17 483c ebf9 1a3e 3154 88bb
00000210: 7b66 453c 6445 b93d 56ad 0e3e d56c 5c3d
00000220: 32e2 3abd d116 fd3c ad9d 1f3c 4d3f 08bd
00000230: 1e21 a43c b070 0abd 0680 873d 1f8b 3abb
00000240: a0fc b9bb d01a f53c ae00 88bc c3fe 1ebc
00000250: 1581 103b a519 0c3d 8d0c 3e3d 6cc8 f3bd
00000260: 56bc cb3c 302d fbbc 74e8 98be 5d09 3fbd
00000270: 07be cb3c a298 ccbd b809 9d3c ae8d 0bbd
00000280: 114e ab3b 0c26 05bd 350f a73c 8dbc 4ebc
00000290: 5053 943b e70e c73c c708 113c a645 1fbb
000002a0: d9d0 a03d a57d df3c 985c a339 b6e1 063d
000002b0: 6e59 b9bc e247 cd3b 0b91 94bb 6961 223d
000002c0: 2d97 1b3d 6ba0 81bc 8977 dd3b 6c1d d03c
000002d0: cca6 8fbd 7825 3abc 4715 553d 293f 4d3e
000002e0: 45cc 843c 9d27 c7bd 982f adb9 02d9 f03c
000002f0: 10da ab3b 5912 b8bb 5b66 0e3c bc75 103d
00000300: 71f4 0b3e f14d 75bc 1e6e 72bd 9a80 2d3d
00000310: dbad 043c 9729 13bc 26a8 143d 9cc0 163d
00000320: 962d 6b3d ed98 183d 1de1 d8bc 5a9c 21bd
00000330: 0c20 013c c438 843d fbc1 743b f619 39be
00000340: e4d4 1cbc db28 283c 42e6 503c 7dff 5c3d
00000350: f88c a3bc 7e65 15bd 9d3f 89bd 3282 02bd
00000360: a3a0 b03b 8676 9b3c 3154 f7bc a9ae 923c
00000370: 5e89 38bd 2e76 ba3d a476 42bc 9c4e febd
00000380: f153 dfbd 8585 073c 343e c63b 7635 82bc
00000390: 71b6 77bd 3605 58be 3a60 9f3c 25ab a9bd
000003a0: c7c3 20bd a71f cb3c 8670 97bc b59c 8fbb
000003b0: 512e d83c e9d3 e6bc 5c07 383e 934f 0e3d
000003c0: 2ef6 9d3b cade 8abc ba1c 783c f76c 8cbc
000003d0: c939 ab3a b48f cabd 1742 973d 67bb 83bb
000003e0: 6ed3 c63b cf5e ebbd b5b8 173d 71fc 14bc
000003f0: 634f 5dbd 2bcc 0bbc 369b 9a3a 6f4a 753d
-0.033339266 -0.012653397 0.041118376 0.04965973 0.033091698 0.046800584 -0.004743026 -0.061633173
0.0687236 -0.026222177 -0.003953989 0.12860903 0.02743096 -0.03723172 -0.02735432 -0.0029002521
-0.064539395 0.025438312 0.013942803 -0.032953735 -0.040692702 0.016037675 -0.08855293 0.040698532
0.04769074 0.015924715 0.13167936 0.0029276607 0.007822174 0.0047341785 -0.06534189 -0.1192842
-0.005909847 -0.009443881 0.023902716 -0.01568236 -0.028037285 -0.010587321 -0.04210245 -0.035737958
0.0744273 -0.068005234 -0.06462395 0.045074165 -0.17220406 -0.013699394 -0.0024990158 0.006194615
0.05945024 -0.0028149073 -0.011446085 0.037935592 -0.028219258 0.008262632 -0.06460046 -0.08316045
-0.030206297 0.00021710523 -0.08562949 0.044901296 0.036941398 0.0054165823 0.0072858874 -0.055456698
-0.0073675923 0.017049043 0.00910224 0.115227535 0.02572149 -0.0027309493 0.022000534 0.0010162008
0.0056534032 0.06273675 -0.02777735 -0.0105577065 0.026791366 0.01697233 -0.01378757 -0.11762822
0.0027223448 -0.0142405275 0.08212005 0.07952204 -0.013956439 -0.04784013 -0.024438675 0.032147635
-0.04281674 -0.02024172 0.022159893 -0.020800233 0.0020390234 -0.012018455 0.006023155 0.04983553
-0.013976739 -0.004679973 0.06365587 -0.075307995 -0.039077178 0.010522821 -0.0062795808 0.028015882
-0.042258818 0.018073635 0.019324927 -0.006979882 0.022072488 -0.048508223 0.1520915 -0.029885719
-0.05624294 -0.034241337 0.014770217 0.0101869395 -0.028697377 0.07060743 -0.017452275 -0.0035195218
-0.011271723 0.05588958 0.0744338 -0.036026284 0.06366401 0.0158642 0.020823024 0.10117069
0.006019121 0.012212693 0.15134399 -0.004160427 0.012048359 0.09046438 0.1393331 0.053814728
-0.045625873 0.030894669 0.009742183 -0.033263493 0.020035323 -0.033798873 0.066162154 -0.002846427
-0.005675867 0.029920012 -0.016601887 -0.009704295 0.0022049595 0.034204144 0.046398688 -0.11903462
0.024870079 -0.030661196 -0.29864848 -0.04663979 0.024870886 -0.0999005 0.019169673 -0.034070663
0.005227812 -0.032506987 0.020392993 -0.012618196 0.004526533 0.024299098 0.00885219 -0.0024302988
0.078523345 0.027281592 0.0003115877 0.0329301 -0.022625651 0.0062646726 -0.004533892 0.03964368
0.03798597 -0.015823564 0.0067586345 0.025404654 -0.07014236 -0.011361472 0.052022245 0.20043625
0.016210685 -0.097243525 -0.0003303259 0.029400352 0.005244501 -0.0056174216 0.008691396 0.03526853
0.13667466 -0.014972196 -0.059187047 0.042358972 0.008098091 -0.008982084 0.03629317 0.03680478
0.05741652 0.037255216 -0.02647453 -0.03945575 0.007881176 0.0645614 0.0037347067 -0.1807631
-0.009572241 0.010263647 0.01275021 0.05395459 -0.01996468 -0.036473744 -0.067015864 -0.031862445
0.005390243 0.018977415 -0.030191513 0.01790555 -0.04505288 0.09104572 -0.011869106 -0.12417337
-0.109046824 0.00827158 0.0060498957 -0.015894633 -0.060476724 -0.21095738 0.019455064 -0.08284596
-0.039249208 0.024795366 -0.018486273 -0.0043826946 0.026389273 -0.028177219 0.17971557 0.034743857
0.0048206067 -0.016951937 0.015143568 -0.017141802 0.0013063486 -0.098906904 0.073856525 -0.004020143
0.006067685 -0.11492693 0.037041385 -0.00909339 -0.054030787 -0.008532564 0.0011795524 0.05988544

bias f4 [12]
00000000: 0f00 83bc 0f0a a43c e90a 833e 129e b93d
00000010: d138 0dbe ff88 d6bb 3701 f4bd d25b 6f3d
00000020: 79c8 7b3e f5eb a13d b847 c2bd f134 183e
-0.015991239 0.020024328 0.2559426 0.09063353 -0.13791205 -0.006547093 -0.11914294 0.058437176
0.24588193 0.07906333 -0.094863355 0.14863946
