go2_sr/policy/go2/trot/policy_1.pt (torch, 797192 bytes, 8 tensors)

weight f4 [512, 59]
000000 78 01 f3 be b6 04 29 bf c7 14 ae bf 56 49 cd 3e
       -0.47462058 -0.66022813 -1.3600091 0.40095013
000010 fb d3 14 3f 63 b3 a3 bd ef 4e dd bd 06 fe 2e 3f
       0.58135957 -0.079932 -0.10806071 0.6835636
000020 39 ac 70 3f de e6 a5 bf c2 2d 1b be 2e d1 33 3f
       0.9401279 -1.296108 -0.15154174 0.7024106
000030 ff 95 0b be 44 0f 0c 3f 94 43 41 be 88 ce 34 3f
       -0.13631438 0.54710793 -0.18873435 0.7062764
000040 b2 68 42 3e f4 c3 77 3f b7 01 5b bf 96 9e 68 be
       0.1898525 0.96783376 -0.8554949 -0.22716746
000050 3c 1f b8 bd 71 c7 0d be 58 5b 72 be ba 04 b9 bd
       -0.089903325 -0.13845612 -0.23667657 -0.09034105
000060 6e ee 0c 3f 80 43 3f be ae 6d f0 bd 08 70 d1 3e
       0.55051315 -0.18678093 -0.1173967 0.40905786
000070 af 10 4c be 0e df 6b bf 5d 29 92 bd 96 d7 b7 be
       -0.1992824 -0.9213723 -0.07136796 -0.35906667
000080 40 8c 97 be f7 23 2f 3e 2d f2 ce bb 69 5c 06 be
       -0.2959919 0.17103563 -0.0063154907 -0.13121189
000090 10 08 a6 3b 14 6a 70 3d ef 6b 0a bd b6 25 24 bd
       0.005066879 0.058694914 -0.03379434 -0.040075026
0000a0 cf 37 61 bd 6e 7e 34 be 29 dc a7 bc e2 84 82 bc
       -0.054984864 -0.17626354 -0.020490723 -0.015932504
0000b0 6c 6c 68 be 65 45 92 3d f4 6a 6f 3d f8 3f f5 bc
       -0.2269761 0.07142142 0.058451608 -0.02993773
0000c0 da 3a 01 3e b5 d2 ae bd 69 c1 6e 3d 5b 42 6b bc
       0.12620106 -0.08536283 0.05828992 -0.014359082
0000d0 2d 21 5d bd 29 e4 83 be dc a1 8b bd dd 31 13 3d
       -0.053986717 -0.2576001 -0.068179816 0.035936225
0000e0 08 b4 1b bd 8c c6 b3 3d ec de 80 bd 7d 38 19 bf
       -0.038013488 0.08778104 -0.06292519 -0.5985182
0000f0 85 52 3b 3f 73 c5 94 3f f8 16 3c be f7 07 07 be
       0.7317279 1.1622757 -0.18368137 -0.13186632
000100 12 08 87 bd ee 13 22 bd 76 fd 51 bf 10 7f b1 be
       -0.06593336 -0.039569788 -0.82027376 -0.34667253
000110 f4 c8 a1 3f f6 44 33 3f 1b dd 89 3e 3d a0 4c bf
       1.2639451 0.700271 0.26926503 -0.79932004
000120 96 5c 97 3c 9c 9d 77 3f 2e 47 77 be ff e5 5f 3e
       0.018476766 0.9672487 -0.24148247 0.2186508
000130 14 c1 f1 be d7 f9 e9 3e 0a 2b 06 3f 3d 47 8a bf
       -0.4721762 0.45698425 0.5240942 -1.080299
000140 85 a9 21 bf 41 b6 16 3f 02 78 9d be 42 aa e6 be
       -0.6314929 0.5887185 -0.3075562 -0.4505177
000150 48 35 88 be d4 76 2b 3f ee ec 81 3f d3 7b ff 3e
       -0.2660315 0.6697819 1.015043 0.49899158
000160 27 cd 88 bf 03 36 84 be f3 78 8e 3e 6f fa 5a be
       -1.0687608 -0.25822458 0.27826652 -0.21384595
000170 78 79 b6 3e 11 fc 86 bd 46 f4 78 3c dd d6 ae bd
       0.35639548 -0.065910466 0.015194958 -0.08537076
000180 d7 fb 06 bd 5c 53 04 be 2c 9d 01 3d 38 33 73 3d
       -0.032955017 -0.12922424 0.03164403 0.059375018
000190 a3 a2 81 be 29 01 15 3d a7 cf e4 bd 88 02 e7 bd
       -0.25319394 0.03637806 -0.11172419 -0.1127978
0001a0 63 c8 82 3e c5 5f 43 3d f8 87 c1 3d 89 0d a7 bd
       0.25543508 0.047698755 0.09449762 -0.081568785
0001b0 ba c6 4f bd 77 c8 0b be 82 ed ec 3c 75 35 8e bb
       -0.05072663 -0.1365069 0.028921846 -0.0043398687
0001c0 e4 a3 d2 bd 78 29 45 bd 03 eb d4 3c bc f3 97 bc
       -0.10285166 -0.04813525 0.025990969 -0.018548839
0001d0 76 7d 81 3d a3 e2 c3 bd f5 55 8a 3e f0 7b 97 3e
       0.06322758 -0.09564712 0.27018705 0.29586744
0001e0 f1 c1 4b be 54 30 07 3e 48 88 60 3d ea 88 54 3d
       -0.19898202 0.1320203 0.054817468 0.051888384
0001f0 1f 57 93 3e ea 4c 09 3f 89 88 e8 3e 76 2a 14 3e
       0.28777406 0.53632987 0.45416668 0.14469323
000200 90 34 be be 2b 9d d7 bf 1d af 84 3e 45 02 d7 3d
       -0.37149477 -1.6844839 0.2591485 0.1049848
000210 a9 bf cb bf 98 91 ad be 94 de 65 3f a8 32 1d bf
       -1.5917865 -0.33900142 0.8979275 -0.6140542
000220 f6 16 81 3f 15 37 8d 3e cd 68 60 40 68 ce a4 bf
       1.0085132 0.27581087 3.5063965 -1.287549
000230 55 07 32 3f 1f 5a 6b bf ec 03 fc 3e b8 95 70 be
       0.6954244 -0.9193439 0.49221742 -0.23494613
000240 b4 12 71 bf 2e 53 af be 6a 52 90 3e ff 00 19 bf
       -0.94169164 -0.3424315 0.28187877 -0.59767145
000250 70 65 81 3e 78 0d e6 bf 5c d0 fc bc 46 3d da 3f
       0.25272703 -1.797286 -0.030861072 1.7049949
000260 1e 54 8b bc d0 ad cd 3e 0c a6 2c be 0e 6b 91 3e
       -0.017007884 0.4017167 -0.16860217 0.2840199
000270 77 0d 4e 3e 16 4b bf bd 87 cb 44 be 9f a1 a7 3e
       0.20122324 -0.093404934 -0.19218265 0.32740495
000280 ec ea 2a 3c 4e 11 e4 be 08 fc d4 bc 48 5c 32 3d
       0.010431986 -0.44544452 -0.025999084 0.043545038
000290 a0 b8 97 bc da 8e 90 bc 7a 9e a2 3c 2f 70 06 3e
       -0.018520653 -0.017646242 0.019850958 0.13128732
0002a0 d9 eb 42 be 05 45 fa 3d 9b b4 27 be 6b b5 6d 3c
       -0.19035281 0.12220196 -0.1637749 0.014508585
0002b0 80 b8 a7 3d 29 b7 1d be 44 cf 25 be 7f 81 76 bc
       0.081894875 -0.15401901 -0.16192347 -0.015045523
0002c0 83 9a 9b 3c 32 26 e6 be 90 9b d2 be 66 3d ab bd
       0.018994575 -0.44951016 -0.4113431 -0.0836132
0002d0 58 c1 1d 3e 70 42 17 3e d2 55 f2 3c 34 2c a1 3e
       0.15405786 0.14771438 0.029581938 0.31479037
0002e0 49 e8 e9 3d a4 20 e9 bd 66 c0 29 bf 9d 55 25 bd
       0.11421258 -0.11383179 -0.663092 -0.04036485
0002f0 9a fd bf be 69 46 d8 3d 0c 64 00 bf 6a b5 9f bf
       -0.3749817 0.10560305 -0.5015266 -1.2477238
000300 92 51 d3 3e b4 d7 75 bd 19 cc a5 3f 47 02 47 be
       0.4127317 -0.060020164 1.2952911 -0.19434462
000310 84 eb be 3e f3 dd 0c be 77 25 80 be d1 66 67 be
       0.3728906 -0.13756542 -0.25028583 -0.22597815
000320 e4 f7 37 bf ea c8 85 bd 88 5f 7a 3e 56 13 16 3f
       -0.71862626 -0.06532462 0.24450505 0.58623254
000330 88 b9 1a 3e d3 b4 17 3f cc fc 81 bf 40 1a e1 3e
       0.15109837 0.5926029 -1.0155272 0.4396534
000340 5e 65 a7 3d c4 55 9f 3e a0 42 d1 3e d7 7a ea 3c
       0.08173631 0.3112012 0.40871143 0.028623028
000350 c5 12 4f be 5d 83 b0 3d 3b f1 d0 bd 7e f4 b7 3d
       -0.20222004 0.086188056 -0.10202261 0.0898218
000360 10 f5 64 bd 30 ea 12 bd 85 9d 15 be 55 b9 04 be
       -0.055897772 -0.03586787 -0.1461087 -0.12961324
000370 c5 7f 7d 3d 7c ef 26 be 46 94 83 bc 98 c1 df bd
       0.06188943 -0.16302294 -0.016061913 -0.10925597
000380 4d 71 85 3d 53 51 e8 bb d9 36 b8 3d be a1 ff 3d
       0.06515751 -0.0070897727 0.08994836 0.12482022
000390 4d 4c e8 3b be 4e 37 bd 8f 93 36 3d 80 74 26 bd
       0.007089174 -0.04475283 0.044574317 -0.040638447
0003a0 74 b4 4d 3d 55 11 0f be cd 96 82 bd f1 70 d1 bb
       0.05022092 -0.13971455 -0.06376419 -0.0063916375
0003b0 3f 7d 28 bf 7e 3e 38 3f 50 8c d9 3f 3b eb 37 3e
       -0.6581611 0.71970356 1.6995945 0.17960827
0003c0 8e d5 a1 3d 25 b6 85 bd a8 74 de bc a2 24 fa bf
       0.079020604 -0.06528882 -0.027155235 -1.954243
0003d0 e1 69 e9 3e 52 22 84 3e 9c 11 a7 bd b5 d9 93 3e
       0.45588592 0.25807434 -0.081576556 0.28877035
0003e0 2a 6f 97 be 18 9e fd bd 3f 15 c6 bf 5e 8d e3 be
       -0.29577 -0.123836696 -1.5475234 -0.44443792
0003f0 b3 24 3c 3f 91 34 7c bf 41 64 b2 bf 13 7f 1e 3f
       0.734935 -0.9851771 -1.3936845 0.6191265

bias f4 [512]
000000 9c bb c4 be 16 c7 49 3d a7 0e 0e be 17 52 0a bf
       -0.38424385 0.04926213 -0.13872777 -0.5403151
000010 64 ac 0f 3e f0 db a8 3b 9d c6 00 bd 04 1b 6e bf
       0.14030606 0.0051531717 -0.031439412 -0.9300997
000020 6a 95 a9 3c 2f ad c6 bf 09 26 85 3e f1 32 70 3d
       0.020701129 -1.5521601 0.2600558 0.05864233
000030 40 5c 23 bf 72 52 0e 3c 02 3e ed 3e 53 4c 2b bf
       -0.6381264 0.008686649 0.4633637 -0.66913337
000040 2f c4 07 be 99 ae ec 3d 7e d6 a3 3d 16 dd 3c 3e
       -0.13258432 0.11556739 0.079998955 0.18443713
000050 eb cf b8 bd 17 25 86 bf 7f 12 c6 3e b1 db 81 be
       -0.09024032 -1.0480069 0.38685986 -0.25362924
000060 bf 48 20 3f a2 2d 9f 3e 30 55 96 bd aa a7 29 bf
       0.62611 0.31089503 -0.07340467 -0.6627146
000070 f3 fb 3f be 22 3d 1e 3e 65 1c 0e c0 76 db 42 bf
       -0.18748455 0.15453008 -2.220483 -0.7611612
000080 b3 58 1c 3e 4b 99 14 bf 31 69 a3 3d 4c 48 49 be
       0.15268211 -0.58046407 0.07979048 -0.19656485
000090 33 6f 51 bb 8c de 5a be c3 b9 58 3e d3 46 91 bd
       -0.003195715 -0.21373957 0.21164612 -0.07093587
0000a0 f9 a0 30 bf e4 4c 3c be a9 f2 fb 3d 5d 1c 69 bf
       -0.68995625 -0.18388706 0.12302143 -0.91058904
0000b0 06 46 2a bf 29 5a 82 bf 78 67 38 bf 04 84 5d be
       -0.665131 -1.0183765 -0.7203288 -0.21632391
0000c0 3c f8 05 3d 11 3f 0b bd 2a 64 16 bf 7f 05 cb 3d
       0.032707438 -0.03399569 -0.5874659 0.09913158
0000d0 30 85 20 bf 38 62 49 bf 87 68 dc 3e a6 cd 84 3d
       -0.6270323 -0.78665495 0.43048498 0.06484537
0000e0 25 e7 cd 3e 24 44 c3 bf 2f e7 14 bf 30 de 79 3e
       0.40215412 -1.525517 -0.5816526 0.24401164
0000f0 c6 e5 47 bf 93 80 44 be 0d 59 9a be f8 5e 10 3f
       -0.7808498 -0.19189672 -0.30146065 0.5639491
000100 62 31 9d be 06 8a ee be c9 c0 ae be a5 17 93 be
       -0.3070174 -0.4658968 -0.34131458 -0.28728977
000110 20 d6 da be 66 3d c1 be 90 56 25 bf 0e 51 df be
       -0.4274149 -0.37742156 -0.6458521 -0.43616527
000120 b1 c9 aa be f0 1b 5a bd bd 24 7b 3e 07 24 b0 be
       -0.33357003 -0.0532493 0.24525733 -0.34402487
000130 43 92 53 3e d3 e8 f7 3d 16 63 b6 bd b1 e0 a9 bf
       0.20661263 0.121049546 -0.08905618 -1.3271695
000140 79 4c 94 be d2 47 98 bf ac e6 35 bf 36 d0 37 be
       -0.28964594 -1.1896918 -0.710551 -0.1795052
000150 55 4f ec be 88 b7 01 3e 23 50 b9 3e 7e 2f 4d bf
       -0.46154276 0.12667668 0.36193952 -0.8015059
000160 44 a4 af be 23 c3 e2 3e 54 ba 0a 3f a2 39 8b be
       -0.34305012 0.44289503 0.54190564 -0.27192408
000170 5b f7 e4 3b fc e3 7f 3e 49 fe 6a bf 5b 3c a0 be
       0.006987495 0.24989313 -0.9179426 -0.31296048
000180 54 e4 6f bf 8d 7b ad be a5 88 30 bf d0 b9 3e bf
       -0.93707776 -0.33883324 -0.68958503 -0.7450228
000190 fb f1 8c 3e dd 0c 38 3e fd fd c8 3d 89 15 41 bf
       0.27528366 0.17973657 0.098140694 -0.75423485
0001a0 db f4 2c be 59 1c 08 bf 53 52 a9 3e f0 40 5f bf
       -0.1689028 -0.53168255 0.3307062 -0.8720846
0001b0 24 e7 70 be 00 70 f8 be 82 94 15 bd 79 ef e1 be
       -0.23525673 -0.4852295 -0.03651858 -0.44128016
0001c0 f9 07 d3 be ba b2 8e be 7f a4 0b be 52 c5 26 3e
       -0.4121702 -0.27870733 -0.13636969 0.16286209
0001d0 73 9b a0 bd de 1c b3 3e 50 e7 98 bd 13 83 38 3d
       -0.078421496 0.3498296 -0.07465994 0.045046877
0001e0 fe 7a de 3e 2e 1c 90 3e 72 af 35 bf 0f 0e 83 be
       0.4345321 0.281465 -0.70970833 -0.25596663
0001f0 dc 94 b7 3d d5 a2 52 3e 5e cf da be 31 c2 15 c0
       0.089639395 0.20569928 -0.42736334 -2.3399775
000200 31 06 13 be 8f 3e c1 3e d7 72 32 be 32 5b c5 3e
       -0.1435783 0.3774304 -0.1742662 0.3854614
000210 1f 08 ea 3d 30 26 cb be 1a 57 3a 3e 58 c6 3c 3e
       0.1142733 -0.39677572 0.18197289 0.18435037
000220 fd 5d 46 bf 0d b9 a1 be 68 cf 1f be 31 21 d6 3d
       -0.77487165 -0.31586495 -0.15606463 0.104555495
000230 44 de 13 bf e4 b0 b6 3d ae da 11 bf 9a c5 92 3e
       -0.57761025 0.08920458 -0.56974304 0.28666383
000240 4f c3 23 bf 2e 94 54 bd d3 56 2b be 69 e5 d6 3d
       -0.6396989 -0.051899128 -0.1673234 0.10492975
000250 a5 80 96 3e c6 fe 81 3e 79 be 07 bf 76 ff 6c bf
       0.29395023 0.2538969 -0.53025013 -0.925773
000260 b7 7e 06 bf 8e 32 13 bd 02 e2 fe be d3 94 3e bf
       -0.525371 -0.035936885 -0.49781805 -0.7444584
000270 9c 56 d2 3e f1 c6 c4 be a6 b0 e1 be 53 e6 f3 be
       0.41081703 -0.3843303 -0.44080085 -0.4763666
000280 7b a7 29 bc 61 07 25 bf 33 53 c9 be 13 52 8a be
       -0.010354872 -0.64464384 -0.39321288 -0.27015743
000290 a0 77 65 3e bd 14 a8 be d3 14 18 be 15 de 1b bf
       0.22408915 -0.32828322 -0.14851694 -0.60885745
0002a0 75 0f 0c 3c 5c 8c d1 bc 24 7f 90 3d 86 52 6d 3d
       0.008548607 -0.025579624 0.070555 0.05794003
0002b0 f1 8b 2c bd b9 88 ca be 95 99 7a be ed 8e f7 bc
       -0.042125646 -0.39557436 -0.2447265 -0.03021952
0002c0 e0 db b3 bc 87 d9 ac 3d 5d 03 8c be 13 bc ef 3d
       -0.02195543 0.084399275 -0.27346316 0.11705794
0002d0 27 9c b8 bd 0c 8f da bc 9f 47 24 3e 86 d8 2d bf
       -0.09014159 -0.026679538 0.16042946 -0.67908514
0002e0 ff 94 81 be 86 ca b7 be 91 6a 5c 3b 7d 2f b3 3e
       -0.25308987 -0.358967 0.0033632854 0.34997168
0002f0 08 61 83 3e 72 3a be 3e e4 75 4e 3d 5c d2 d9 be
       0.25659966 0.37153965 0.050405398 -0.42543304
000300 fd 57 93 3e bd cc ec be 66 f8 0a bf 50 76 d1 be
       0.28778067 -0.46249953 -0.54285276 -0.40910578
000310 a8 eb d0 bd 28 75 e5 be de 9c 84 be ca de a9 3e
       -0.10201198 -0.44815946 -0.2590093 0.33177787
000320 cd e9 16 bf c6 ff 17 bf 93 9e 53 3e 15 23 ff be
       -0.589505 -0.59374654 0.2066596 -0.49831453
000330 45 7d 12 bf de bc 5e 3d 3d 1e ff 3e ce 6f db b8
       -0.57222396 0.054379337 0.49827757 -0.00010463559
000340 c7 7f 78 bf cb 3b b6 bd fc d0 f2 be 3f eb 08 c0
       -0.9706997 -0.08898123 -0.47425067 -2.1393583
000350 e9 ee 81 3e 7d a6 77 be 3b 55 10 3f 8f 36 59 be
       0.25377586 -0.24184604 0.5638005 -0.21212219
000360 d8 08 05 be 8c e3 c6 be 0b 38 b6 be 5c 86 22 be
       -0.12991655 -0.3884548 -0.35589632 -0.15871567
000370 55 13 a4 be 79 c3 fe be 17 8a e1 3c 3c 18 6a be
       -0.32046 -0.4975851 0.027531667 -0.22860807
000380 e7 b4 1f be f3 df 31 bf c9 8b 00 be 7f 8d 69 3e
       -0.15596353 -0.69482344 -0.12553324 0.22807883
000390 51 b2 8f 3e bd 4d 36 3f 52 7b 0f bf e1 ad 99 be
       0.28065732 0.7121237 -0.56047547 -0.30015472
0003a0 d5 ce 90 bc d4 ff 49 bf 62 d1 d9 3e 1b 2f 83 be
       -0.01767675 -0.7890599 0.4254256 -0.25621876
0003b0 78 1b 28 bf 4e 9c 59 bf ec 9c 8e 3d 6c 6d f1 3c
       -0.65666914 -0.8500413 0.06963524 0.029471122
0003c0 49 e0 ef 3d 59 0e 5c bf 65 1e 06 3e bd 14 f3 3d
       0.11712701 -0.8595939 0.13097532 0.1186919
0003d0 40 76 5d 3d aa bf 43 be 75 95 81 be 3e 22 73 be
       0.05406785 -0.19116083 -0.2530934 -0.23743531
0003e0 d1 89 47 bf 91 25 13 3e 51 70 d6 be f3 b7 4d be
       -0.77944666 0.14369799 -0.41882566 -0.20089702
0003f0 8f 34 41 3e f0 82 9a bf a8 27 29 bf 9c 6d dd 3d
       0.18867706 -1.2071209 -0.66076136 0.10811922

weight f4 [256, 512]
000000 27 ea 24 bb f5 6e 09 3b 4c f5 80 3e 41 99 0d 3e
       -0.002516398 0.0020970677 0.25187147 0.13827993
000010 19 cc 84 3e 9d 92 8b be a3 14 00 bf b0 5d 88 3d
       0.25936964 -0.27260295 -0.5003149 0.066584945
000020 d7 26 58 be 36 b3 17 3e 7a 48 2e 3c 18 f2 c6 3c
       -0.21108566 0.14814457 0.010637397 0.024285361
000030 75 99 13 3d 66 f6 f2 3e 07 72 9b be 51 d5 e7 3d
       0.03603502 0.47453612 -0.30360433 0.11319984
000040 6d 1d 6d 3e 3d 96 06 bf 77 be ae 3e ea 72 85 3e
       0.23155756 -0.52572995 0.34129688 0.26064235
000050 7e a5 17 bf 31 9a 6e bc 75 02 53 3e 2e 75 3e be
       -0.59236896 -0.014563129 0.20606406 -0.18599388
000060 7a 48 cd 3e f7 6c 9c 3e c1 a1 96 be 04 e5 4f 3d
       0.40094358 0.30551884 -0.29420283 0.050755516
000070 06 1f 69 3e 47 40 20 be e1 c6 50 3e 6a de f0 3e
       0.22765741 -0.1564952 0.20388366 0.47044688
000080 ca e5 d6 be fc 3b 0d 3e f9 37 bd 3e 93 5c 8f bd
       -0.4197219 0.13792413 0.36956766 -0.07000079
000090 2e 7c f3 bd 29 b6 d2 3e d2 f4 f9 bd 47 4f 69 3e
       -0.1188892 0.41154602 -0.12204899 0.22784148
0000a0 62 49 68 be da c8 b6 3e 05 e9 ec bc 87 71 a3 3d
       -0.22684243 0.35700113 -0.028919706 0.07980638
0000b0 ba f2 f5 3d 8f f0 68 3d 07 bc 89 3d 3a 64 b2 be
       0.12009187 0.05687004 0.067253165 -0.34842092
0000c0 d4 8f 70 be 44 51 c7 be a7 4a 89 bd 28 f1 c3 3e
       -0.23492366 -0.38929188 -0.06703692 0.38269925
0000d0 39 59 d7 3e 1d a6 98 bd a8 1b 8d be 96 7f 4a 3e
       0.4206026 -0.074535586 -0.27560163 0.19775233
0000e0 00 e2 4e bc 07 f2 88 3e 50 33 2a be 23 25 6e 3e
       -0.012627125 0.26747152 -0.16621137 0.23256354
0000f0 f6 4e 20 bd 15 99 de 3c 7d d6 3c 3e 06 d1 4c 3d
       -0.039137803 0.027172605 0.18441196 0.050004028
000100 e6 d3 04 bd 2b 63 b6 3d ba 6a d5 3b a2 7e a9 be
       -0.032428645 0.089056335 0.006512967 -0.33104426
000110 22 56 af bd a3 d7 28 3e 5a 9b cc 3e 4b e8 8a 3e
       -0.085613504 0.16488509 0.39962274 0.2713035
000120 6c 51 76 3e 57 01 79 be 70 07 a0 3e b3 e5 97 3d
       0.24054497 -0.24316917 0.31255674 0.074168585
000130 87 f3 94 3e 8b 65 ef 3d 75 35 45 bd 82 ae 50 3e
       0.29092047 0.1168929 -0.048146684 0.2037907
000140 95 02 c2 be 1a 02 f9 3c 07 e1 fa 3d 3a fa 53 be
       -0.37892595 0.03039651 0.12249952 -0.20700923
000150 70 b0 1e 3d ac fc 9a 3b 07 56 4d 3d 99 a2 9f be
       0.038742483 0.004729828 0.05013087 -0.3117874
000160 80 18 8e 3e ca 5c 0b be 2e ec 50 be ac 5f be be
       0.27753067 -0.13609615 -0.20402595 -0.37182367
000170 6a d0 e6 3e 40 73 e9 bd f0 c9 94 be 88 14 98 3d
       0.45080882 -0.11398935 -0.29060316 0.07425791
000180 38 4e 25 3d 86 90 9a 3e f2 5d 60 3e 51 4f 78 bd
       0.0403578 0.30188388 0.21910837 -0.060622517
000190 7f db 49 3e 12 6f 13 3d 4d e2 b2 be 24 c7 60 3e
       0.19712637 0.035994597 -0.3493828 0.21950966
0001a0 dc 0e 00 3f 0b cc b0 be 12 f9 14 3e bb 82 35 3e
       0.50022674 -0.34530672 0.14548138 0.17725651
0001b0 26 cc df bd a0 13 45 3d 4e 60 df bd 86 e0 25 3e
       -0.1092761 0.04811442 -0.109070405 0.1619893
0001c0 51 4d c7 b9 19 f3 8e bd 5e 63 8a 3d 53 34 0a bd
       -0.00038013843 -0.06979961 0.06757234 -0.033741307
0001d0 8b 22 6d 3e 35 68 f2 be c7 f2 74 be 26 7e ff bc
       0.23157708 -0.4734513 -0.23920737 -0.031188082
0001e0 20 23 8a 3d 24 73 ab be ef 61 80 3d 6a 65 2a be
       0.06744981 -0.33486283 0.06268679 -0.16640249
0001f0 68 b0 28 bd 27 70 2f be 33 65 40 3e a8 fe a4 3e
       -0.04118386 -0.17132626 0.18788604 0.32225537
000200 b8 5d 38 bd 04 21 b2 be 96 33 6a bd 2f bc 8e be
       -0.045011252 -0.34790814 -0.057178102 -0.27877948
000210 7a 89 7e bc 10 34 9f 3d a4 79 8d 3e d6 46 2e 3d
       -0.015535707 0.07773602 0.27631867 0.042548023
000220 b2 ff 70 3e 38 9b 25 3c 61 5b 6d 3d d8 91 c6 bd
       0.2353504 0.010107808 0.057948474 -0.09695786
000230 38 29 46 3c 82 e1 34 be c3 f3 a3 be 0d c5 bd bd
       0.012094788 -0.1766415 -0.32021913 -0.092661
000240 59 19 fb 3d 78 97 07 3e c7 b1 d2 be 3a a7 b3 3c
       0.12260694 0.13241374 -0.41151258 0.021930326
000250 52 c5 55 bb da 2a 08 bd b9 c9 ee 3e f8 61 0f 3e
       -0.0032618833 -0.03324399 0.46638277 0.14002216
000260 50 d8 2e 3e ff dd 06 3e 81 3c 7b bd ff 70 50 be
       0.17074704 0.13170622 -0.061336998 -0.20355605
000270 4b e3 9c bd ac 18 bd 3e 28 46 57 be c1 81 39 bd
       -0.0766054 0.36932886 -0.21022856 -0.04528976
000280 0a 1a b4 3e 27 06 67 3e bf f4 1e 3d 0b 1e 84 3d
       0.35176116 0.2256094 0.038807627 0.06451043
000290 32 54 1a 3e 4e b2 d0 be b0 f3 62 be 43 0b 04 be
       0.1507118 -0.40761036 -0.22163272 -0.12894921
0002a0 ab 30 5e 3b db 13 58 3e fc aa fd be 19 e1 15 3d
       0.003390352 0.21101324 -0.49544513 0.036591623
0002b0 11 90 92 bc a2 4a 92 3e 89 01 be 3e f2 e5 dd be
       -0.017890962 0.28572565 0.37110546 -0.43339497
0002c0 4f c7 b7 3e b2 de 3d be 50 b5 52 3d 88 3c 9f bd
       0.35894248 -0.18541983 0.051442444 -0.07775217
0002d0 b6 80 a5 3e d4 02 30 be 27 d8 c2 be 26 e4 aa 3d
       0.3232476 -0.17188579 -0.38055536 0.08344297
0002e0 62 71 3a be bb 82 88 3e 31 21 0a 3c 42 49 96 3e
       -0.18207315 0.2666224 0.008430765 0.29352766
0002f0 bc 2a 1e 3e 3a a6 58 be 9b 73 ab bc b9 29 f9 bd
       0.1544599 -0.2115716 -0.020929148 -0.12166161
000300 b9 a0 99 bd 94 3f 70 3d 3f 16 45 3d 3d 29 a5 3e
       -0.075013585 0.058654383 0.04811692 0.32258025
000310 d0 43 21 3e 2e c9 1e be a0 fa 9f bc 9c 79 35 be
       0.15748525 -0.15506431 -0.019528687 -0.17722172
000320 35 1e 6c be 0e bb 79 bd 3b ad c7 bd f5 f0 72 be
       -0.23058398 -0.060969405 -0.09749838 -0.2372473
000330 70 97 7a 3a 4e 07 aa bd 19 bd 35 bd ab 29 e6 3d
       0.0009559309 -0.083021745 -0.04436979 0.11238416
000340 13 79 ef bd 21 15 68 be 46 4e 82 be 95 c1 a3 3e
       -0.11693015 -0.2266431 -0.25450343 0.3198363
000350 77 fd 9b be d5 b1 80 3c f1 c4 bf 3d e0 83 9e 3e
       -0.30466816 0.015709797 0.093637355 0.30959988
000360 29 a6 3a 3d 83 90 e5 bb 9c fe bf be f2 2a 73 3e
       0.04556862 -0.0070057525 -0.3749894 0.23746851
000370 70 a2 61 3d 68 96 f6 3e 33 8e 08 be 7a d5 af bd
       0.055086553 0.48161626 -0.13335495 -0.08585639
000380 38 82 b9 bd c0 4b f3 3e b1 05 e7 3c 5e 10 38 bd
       -0.090580404 0.4751873 0.028200956 -0.044937484
000390 b4 21 7f be f9 7b a1 3d 59 4e 57 3e d3 04 83 3e
       -0.249152 0.07884974 0.21025981 0.25589618
0003a0 88 77 11 3d e2 33 7a 3e cf b2 04 be 71 35 c0 3c
       0.035514385 0.24433854 -0.12958835 0.023462983
0003b0 f0 77 a0 3c 33 67 60 bc c1 ed 08 bd 83 e0 87 be
       0.01958844 -0.01369648 -0.033429865 -0.26538476
0003c0 0e f1 89 3d ca 3e 01 be 68 bc 95 3e a6 09 59 be
       0.06735431 -0.12621608 0.29245305 -0.21195087
0003d0 e1 bd 8f 3d 1f 25 ca 3c a3 95 1c 3e 34 27 92 be
       0.070186384 0.024675904 0.15291457 -0.28545535
0003e0 bc 6c 73 bd db a6 86 bc 94 06 29 be b1 e9 55 3c
       -0.05942987 -0.016436985 -0.16506416 0.013056205
0003f0 22 01 e8 be 03 d9 9b 3e ff 1d 6e 3c fe 3e 98 3d
       -0.45313364 0.30439004 0.014533519 0.0743389

bias f4 [256]
000000 4c 89 a1 be 5b 25 a5 be 85 df d4 be 01 9e 41 bf
       -0.31550062 -0.32255062 -0.41576782 -0.7563172
000010 db 7c 88 be f0 2e ee be a1 c2 ab be 98 a1 88 bd
       -0.26657757 -0.46520185 -0.33546928 -0.066714466
000020 c0 9e f8 be ba f3 6d be 09 09 17 bf 35 d4 b1 bd
       -0.48558617 -0.23237506 -0.5899816 -0.086830534
000030 f1 1a 91 be 20 c6 b3 be 8d d3 98 be b0 a9 af be
       -0.28340867 -0.35112095 -0.298489 -0.3430915
000040 ce 17 94 bd c2 de 8b bd 92 62 53 be c0 ba 7c be
       -0.07231103 -0.06829597 -0.2064307 -0.24680614
000050 02 c3 47 bd 94 0a a2 be bf 0e 85 bd 5e 8e f0 be
       -0.04876996 -0.31648695 -0.06496953 -0.46983618
000060 e3 8f b3 be 62 8d 83 be e4 89 fe be 2a 1e 02 bf
       -0.35070714 -0.25693804 -0.49714577 -0.50827277
000070 6f 06 60 be 00 04 7e be 3c 3f a2 bd 0d cf bb be
       -0.21877454 -0.24806213 -0.07922217 -0.36681405
000080 ba f5 a2 be af 3e 23 bf 39 05 99 be 0b b7 c0 be
       -0.318281 -0.6376752 -0.29886797 -0.3763965
000090 6f 4d ce be e8 2e 89 be 56 4f ad bd 0c 97 65 be
       -0.40293452 -0.267936 -0.08462398 -0.22420901
0000a0 2d 0b 4f be 17 13 bf be fd 1e 48 be 0b ec d8 be
       -0.20219107 -0.37319252 -0.19543071 -0.42367586
0000b0 9c e4 83 3d 8a ae 34 be a0 9c d9 be b2 9b d2 be
       0.06440088 -0.17644706 -0.42502308 -0.4113441
0000c0 83 f4 77 be 07 b3 0d be 4d f2 ed be 21 48 98 be
       -0.24214368 -0.13837825 -0.46473923 -0.2974253
0000d0 14 1b 10 be b6 7b c9 be d6 ed 8d be dc 74 fc 3d
       -0.1407283 -0.39352196 -0.27720517 0.12326977
0000e0 1b ad 8a be 11 b1 8f be b0 92 9d be e1 37 6c bd
       -0.27085194 -0.28064778 -0.30775976 -0.057670478
0000f0 aa 93 93 be b2 3c 36 be e7 56 84 be b3 6b cd be
       -0.28823596 -0.17796591 -0.2584755 -0.4012123
000100 41 3b ec be a2 19 92 be a1 44 51 bd 96 d8 28 be
       -0.46138957 -0.2853518 -0.05109084 -0.16488871
000110 86 a7 65 bc 5a 24 85 be b3 0e c9 be 10 b7 50 3d
       -0.0140169915 -0.26004297 -0.39269027 0.050955832
000120 48 92 7e be 7b f4 cd be e7 47 14 be 61 88 9b be
       -0.2486049 -0.40225586 -0.14480554 -0.30377486
000130 39 d1 e4 be cf 90 e1 bd 24 a6 10 bf 11 9f a6 be
       -0.44690874 -0.11013948 -0.5650351 -0.32543233
000140 76 a4 9f be 50 85 f1 be 27 26 8f 3b e7 30 08 bf
       -0.3118016 -0.47172022 0.004368562 -0.5319962
000150 ae 22 fc be b5 49 af be 8a ec 6f bd 17 51 29 be
       -0.49245209 -0.34235922 -0.05857519 -0.1653484
000160 4c aa 65 bd 36 63 26 bf 94 e2 b5 be c4 80 c9 be
       -0.05607061 -0.64995134 -0.35524428 -0.39356053
000170 0d 1e d3 3d b0 e2 3d be d9 4e 1b bf 57 23 a7 be
       0.10308466 -0.18543506 -0.60667187 -0.3264415
000180 15 b5 25 bd a2 2a c2 be 67 e9 bb be c0 68 b1 3c
       -0.040455896 -0.3792315 -0.3670151 0.021656394
000190 76 af b6 be c5 cb 3e be 5e 55 fe be de 34 a8 3d
       -0.3568074 -0.1863242 -0.49674505 0.082132086
0001a0 bf 1f 79 bd ce c2 21 be 70 7a 4e be b0 e1 bd be
       -0.06082129 -0.15796968 -0.20163894 -0.37086248
0001b0 b7 6f 43 bf 95 41 dd be a3 42 a4 be db ac c6 be
       -0.7634234 -0.43214098 -0.3208209 -0.38803753
0001c0 e6 50 a3 be ac 6b b6 be 15 59 f8 3c 24 62 80 be
       -0.31897658 -0.35629022 0.030315915 -0.25074875
0001d0 f7 af bd be 72 81 cf be e9 ed ed be 21 db 80 be
       -0.37048313 -0.40528446 -0.46470574 -0.25167182
0001e0 ed cc 0c be f7 d5 05 be 2a c5 f3 be 9e e4 3b be
       -0.13750048 -0.13069902 -0.47611362 -0.1834893
0001f0 de 3f 8d be 01 57 0a bf c3 b4 bd be bc 9c a6 be
       -0.2758779 -0.5403901 -0.37051973 -0.32541454
000200 1c cf 06 be 5a c6 e2 be d8 c0 e1 bd cb 46 1a be
       -0.13164943 -0.44291955 -0.1102311 -0.15066068
000210 63 90 e0 be 4c 64 ab be 12 48 7d be cc b8 35 be
       -0.43860158 -0.33474958 -0.24734524 -0.17746276
000220 05 5f f2 be 0e 14 02 bf c9 f1 bc be b7 6f 5f bf
       -0.4733812 -0.5081185 -0.36903217 -0.8727984
000230 b0 36 b1 be d9 54 df be d7 b4 ad be 2f 70 e4 be
       -0.34612036 -0.4361942 -0.33927032 -0.4461684
000240 4d 50 9c be 68 bf 1a bf f9 f7 c8 be 6b a2 73 bd
       -0.30530015 -0.6044831 -0.39251688 -0.059481066
000250 6a 65 d4 be 72 0d 49 be 4b 41 ab be ad 1c f1 bd
       -0.41483623 -0.19634035 -0.33448252 -0.117730476
000260 53 42 89 be 28 7b 9c be a1 3c c4 be e0 4a 99 be
       -0.26808414 -0.3056271 -0.38327506 -0.29939938
000270 a1 b5 0f be 51 08 a6 be 4e 29 c6 be ad e7 5d be
       -0.1403413 -0.3242822 -0.38703388 -0.21670409
000280 24 75 66 be 54 d8 b4 be 50 7d e7 be 07 48 0e bf
       -0.22505623 -0.35321295 -0.45212793 -0.55578655
000290 d6 0b 4f bf 6d 9d 84 be 86 d8 cb be a5 37 f7 bd
       -0.80877435 -0.25901356 -0.39813632 -0.1207116
0002a0 7f 24 b2 3c 35 e8 93 be 90 49 7c be 76 a3 18 3c
       0.021745918 -0.28888097 -0.24637437 0.009316316
0002b0 be e4 b4 be 61 80 24 be e1 45 b4 be a5 2e 1b bf
       -0.35330766 -0.16064598 -0.35209563 -0.6061805
0002c0 07 fd 45 be a7 67 5a be 71 31 48 bf 12 b9 3d be
       -0.19334804 -0.21328603 -0.7820044 -0.1852763
0002d0 d8 97 60 be 09 44 7d be bd d1 2d bc 7a b6 fd bd
       -0.21932924 -0.24732985 -0.0106090875 -0.1238832
0002e0 9e 4c 54 3e 81 05 26 be 25 c0 b3 be 8f 0d 5c be
       0.20732352 -0.16213037 -0.35107532 -0.21489547
0002f0 19 16 87 be eb 39 92 be d8 93 0f bf 0f 85 5c be
       -0.26384047 -0.28559813 -0.56084967 -0.21535133
000300 66 f8 d8 be 41 3e d7 be 77 01 8f be 14 6f 06 bf
       -0.42377013 -0.42039683 -0.27930805 -0.5251324
000310 82 9a ed be e5 f0 76 be a3 63 21 be 29 5e ab be
       -0.46406943 -0.24115331 -0.15760665 -0.33470276
000320 f7 ee 84 3e bb 4d 3c bf 86 23 f7 bc cc 4d 87 bd
       0.25963566 -0.7355611 -0.030168306 -0.066066355
000330 a0 b4 74 bd 85 66 4d bf ef 9d a4 be 9d 43 b8 be
       -0.05974257 -0.8023456 -0.32151744 -0.35989085
000340 60 fc a7 be 14 08 55 be 6a c5 b1 be 8d 2e 89 be
       -0.32809734 -0.20803863 -0.34720927 -0.26793328
000350 23 f2 d4 bd ef d2 9a be 03 b4 55 be ee 97 b6 be
       -0.103977464 -0.30239055 -0.2086945 -0.35662788
000360 05 0e c4 be 74 e3 47 be f3 38 c9 be e6 c5 86 be
       -0.38291946 -0.1952036 -0.3930126 -0.2632286
000370 31 a0 c8 be b4 a1 ad 3d 6b 86 cb be bb be bc be
       -0.39184716 0.08478108 -0.3975099 -0.36864266
000380 f1 e3 25 be 15 00 65 be 3f 38 01 3d 5e 92 54 be
       -0.16200234 -0.22363313 0.03154778 -0.2075896
000390 45 db 03 bf 23 77 57 3d de db 5f be 73 ba a8 be
       -0.51506454 0.052603852 -0.21861216 -0.3295475
0003a0 b7 99 13 bf 57 5b cf be 1a 96 b6 bd e0 cb 0d bf
       -0.57656425 -0.40499374 -0.08915348 -0.55389214
0003b0 e7 c4 06 bf 2f ab ae be 23 69 cd be 9b 9b ce be
       -0.526442 -0.34114978 -0.40119275 -0.40353093
0003c0 4b 11 9d be ae fd 80 be 75 87 e4 be 21 50 e0 be
       -0.30677256 -0.25193542 -0.44634596 -0.43811134
0003d0 f2 24 30 be e5 fb ab bd 0e 50 a8 be 27 f0 e8 be
       -0.17201594 -0.083976544 -0.32873577 -0.45495722
0003e0 e2 ca 1e bf 06 de a3 be 82 8f 8c 3d 80 74 8f be
       -0.62028325 -0.32005328 0.068633094 -0.2801857
0003f0 43 fc a3 bd 62 26 62 be 41 c2 51 be d2 42 c1 be
       -0.080070995 -0.22084954 -0.20484258 -0.37746292

weight f4 [128, 256]
000000 3e 7b d3 3d 53 f6 7c be 49 3a 46 be 84 ce 80 3e
       0.10326241 -0.2470334 -0.19358172 0.2515756
000010 ea bb 26 3d 61 55 e4 3e 91 21 45 3d e3 6f 55 be
       0.040706553 0.4459639 0.048127715 -0.20843463
000020 9d 71 70 3e 32 06 5e 3e 03 ec a8 3e d1 45 52 3d
       0.2348084 0.21682051 0.32992563 0.051336113
000030 61 cf 23 3e 40 17 9b be 6f 43 29 bc 80 b1 17 3e
       0.15997078 -0.30291176 -0.010331019 0.14813805
000040 bf 04 7e bd 3b 29 c7 be 8e 16 4b 3e 23 68 48 bd
       -0.062016245 -0.38898644 0.19832823 -0.048927438
000050 76 01 2b bf 11 d6 e4 bd 80 53 97 3e c1 18 76 3e
       -0.66799104 -0.111736424 0.29555893 0.2403288
000060 1f 8a bb be c9 7c ff 3d 3e 1d a5 3e ac 0c 58 3f
       -0.36628816 0.12474973 0.32248873 0.84394336
000070 ba bd 79 3e 02 a1 1d be d5 e4 f2 bd c9 3c c4 3e
       0.24388781 -0.15393451 -0.118600525 0.38327625
000080 f1 c9 78 3c c3 44 83 3e 9f ce 09 3f a1 72 e2 be
       0.015184865 0.256384 0.53830904 -0.4422808
000090 a0 a6 0f 3f 35 da 05 3f 5e 6c b8 be 6a 24 dc 3e
       0.56113625 0.5228608 -0.36020178 0.42996532
0000a0 5f f6 6c bd 28 97 bf 3e 3e 38 11 3e bb 76 3b 3e
       -0.057852145 0.3742001 0.14181611 0.18307011
0000b0 51 7c 9b be c6 20 f5 be 1f 33 3f be 3c da 77 3e
       -0.30368283 -0.47876567 -0.18671845 0.24204344
0000c0 ee 9e d6 3d 4a 2b 06 3e 60 f4 77 bd ba 68 aa 3d
       0.10479532 0.13102451 -0.06053579 0.08320756
0000d0 e2 2d d8 3d a7 22 de 3e a6 8b 17 bc f5 21 c7 be
       0.105556265 0.43385813 -0.009249603 -0.38893095
0000e0 9b a9 03 3d 6b 63 9b bd 55 ae ba 3e a4 d2 b3 bc
       0.03214417 -0.07587322 0.3646113 -0.021951027
0000f0 ac 7b 2d 3d a0 e6 1d bf c2 8e 97 3d 09 cb 19 3f
       0.04235427 -0.6168003 0.07400276 0.6007543
000100 ab 6f 84 3d 69 00 7f 3d 51 94 da 3d f4 be bb 3b
       0.064666115 0.06225625 0.1067282 0.0057295505
000110 59 85 1a 3d e5 b1 90 3d 70 64 61 3e 66 cb 24 be
       0.037724826 0.07065181 0.2201097 -0.16093215
000120 f5 3e 97 bc 4e a6 8c be 93 ba 08 be 1a 7c a0 be
       -0.018462637 -0.2747063 -0.13352422 -0.31344682
000130 88 ac 2a 3e f2 df 2c be 99 fd cc be 16 c8 d4 3e
       0.16667378 -0.16882303 -0.4003723 0.41558903
000140 ad 94 37 be 48 a3 95 be eb 06 72 bd b3 5a c9 3e
       -0.17927809 -0.29226136 -0.05908863 0.3932701
000150 dd 30 75 3e 88 62 80 bc 68 35 2e bc 62 16 6c be
       0.23944421 -0.015671983 -0.01063285 -0.23055413
000160 6a 3e 0e bf 9e 61 49 3e 64 73 32 3e 8e f3 d2 be
       -0.55563986 0.19666144 0.1742683 -0.41201442
000170 bf 59 79 be 11 34 b9 3d 60 98 83 3e 0e 17 7f be
       -0.24350642 0.09043134 0.2570219 -0.24911138
000180 82 c4 95 3e a0 99 d9 be 7b 30 af bd 84 62 94 be
       0.29251486 -0.4250002 -0.08554169 -0.2898141
000190 8e 07 71 3e d9 70 a6 be 2b 01 21 3e 6f 12 1a be
       0.23538038 -0.3250797 0.15723102 -0.15046094
0001a0 04 f5 57 bd 3e fe 53 3d 1b 35 22 be d9 00 c4 be
       -0.0527239 0.051756136 -0.1584057 -0.38281897
0001b0 56 b2 12 3f 55 b8 d2 3e 2c b7 9e be 6f af be 3d
       0.5730337 0.4115626 -0.30999124 0.09310805
0001c0 ec e8 9a bd ed 01 09 bd 9e 30 c7 be 56 6d 29 3e
       -0.075639576 -0.033449102 -0.3890428 0.16545615
0001d0 cb 80 2d 3e de 72 97 be ed 74 e7 3c 72 47 bd 3c
       0.16943662 -0.29579824 0.028253997 0.023105357
0001e0 78 75 8f be 4c 57 60 3e 11 8a 8c 3d 32 28 28 3e
       -0.2801931 0.21908301 0.068622716 0.16421583
0001f0 42 b2 25 3e 46 00 60 bc 1e e0 96 3e ef c4 e1 3e
       0.16181281 -0.01367194 0.29467863 0.4409556
000200 f1 e0 02 be 43 aa af bd d6 b6 4e 3d c6 96 7d bd
       -0.12781121 -0.08577397 0.050467335 -0.061911367
000210 be 34 0e 3e 1c 51 74 be 7d 14 e6 be b8 7c 79 3e
       0.13887307 -0.23859066 -0.44937506 0.24363983
000220 8a 69 96 3e fd 08 c3 3e 7d 18 1e be 1e 8b b7 3e
       0.29377395 0.38092795 -0.15439029 0.35848325
000230 1e 47 c0 3e be 6d c2 3e 07 0f ff bd 09 78 d2 3e
       0.37554258 0.37974352 -0.12454038 0.41107205
000240 3d 09 c1 be f9 40 6a bc c5 b6 a5 bd 7b b2 c9 3d
       -0.3770236 -0.014297717 -0.08091501 0.098484956
000250 e5 b8 f8 bd e1 9a dc be 39 cf 31 bd 0b 6a ca 3e
       -0.12144641 -0.43086913 -0.043410514 0.3953403
000260 aa c9 4a be 94 1b 25 3d a8 e5 27 3e 6d be ad 3e
       -0.19803491 0.040309504 0.163962 0.33934346
000270 2d 4b ef bd af c1 26 be 59 a9 24 3e 9d a2 e9 3c
       -0.116842605 -0.16284822 0.16080226 0.028519923
000280 95 0c 27 3e aa 1a 14 3e ef 25 49 3c eb c5 fd 3d
       0.16313393 0.14463297 0.0122771105 0.123912655
000290 0d 28 a1 3e 43 46 ca 3c 4d 35 0d 3e 18 77 1d 3d
       0.3147587 0.024691707 0.13789864 0.038443655
0002a0 78 35 78 3d 2c c2 5e be ce 0b a4 3c 10 af 00 bf
       0.060597867 -0.21753758 0.02002516 -0.50267124
0002b0 01 43 f2 bd 7c 19 13 3e ca a9 9f 3d a8 98 70 3e
       -0.11829186 0.1436519 0.077960566 0.23495734
0002c0 18 47 f9 bd 8a ca 32 3f e0 ab a9 3e 5b 6b 51 3e
       -0.12171763 0.698403 0.33138943 0.20451109
0002d0 6c cc dd 3e b3 17 9f 3e 92 4c 90 be 27 b1 38 bc
       0.43320024 0.3107277 -0.2818342 -0.011272705
0002e0 86 ac 2a be 8f 90 1f be 77 42 3d 3d ab 96 89 3e
       -0.16667375 -0.15582488 0.046205964 0.26872763
0002f0 31 04 f3 3d c5 e1 07 3e e5 fb ce 3e c5 d6 78 3e
       0.11866034 0.13269718 0.40426555 0.24300678
000300 aa 1f 2b 3f ba a4 f4 3e f6 46 a6 be 63 87 b9 bd
       0.6684519 0.47781926 -0.32476014 -0.09059026
000310 23 db c4 3d a4 7b 3c 3d 80 da 8e 3e 46 3d 3b be
       0.096121095 0.04601635 0.27901077 -0.18285093
000320 17 a3 20 bd cc fd b9 3c f9 08 a5 be 80 80 d8 3e
       -0.039218035 0.022704028 -0.32233408 0.42285538
000330 24 08 83 be a4 ce 2e 3f 86 2c d8 3e 6f ef 93 bb
       -0.25592148 0.6828406 0.4222147 -0.0045146267
000340 53 bc 9c be aa e2 79 3e 9b e9 84 3d af 5f 3e bd
       -0.3061243 0.24402872 0.06489869 -0.04647797
000350 b8 b5 38 bf 62 88 20 3e a0 df 54 bd 1d cd 03 bd
       -0.7215228 0.15677026 -0.051971078 -0.032178033
000360 a1 9c 14 be 68 d5 27 bb 44 23 18 bd 05 90 2e bd
       -0.14512874 -0.0025609378 -0.037143007 -0.042617816
000370 e5 05 00 3f fe c2 1c be 70 e2 3b 3e 39 0a 78 bd
       0.50008994 -0.15308759 0.18348098 -0.060556624
000380 22 3a 81 be 79 fb ad 3e d2 aa 14 bc 6b eb 16 be
       -0.25239664 0.3398092 -0.00907393 -0.14738242
000390 08 c9 8b 3d 40 1d 6e be 4a a4 c5 3e 60 b0 83 be
       0.06825453 -0.23253345 0.38601905 -0.257205
0003a0 30 3c b6 3e 26 5b 83 3d 1b 23 c4 be d4 f8 c9 3e
       0.35592794 0.064138696 -0.38308033 0.39447653
0003b0 0e 0a 86 3d 55 85 f9 3d ed d3 75 3e 63 2b b5 3d
       0.065448865 0.12183634 0.24006625 0.08846166
0003c0 b0 af 7f 3e 90 1d b2 bd 39 3c 8b bd 30 fd 28 bd
       0.24969363 -0.08697045 -0.06798596 -0.041257083
0003d0 43 5b 43 be 5a ed 8f 3e 56 46 ea bd 9e 05 cd 3e
       -0.19077782 0.28110772 -0.11439197 0.40043348
0003e0 8a a2 4d 3e f7 7c 32 3d e2 0f b2 be e9 46 50 3e
       0.20081535 0.043576207 -0.34777743 0.2033955
0003f0 5a d8 2d 3e e3 4a 95 3e 4c 67 32 3d 78 2d 8b 3d
       0.16977063 0.29158697 0.043555543 0.06795782

bias f4 [128]
000000 73 45 13 bf 3a ba aa be 2c 32 81 be 9f 6f c6 be
       -0.57527846 -0.33345205 -0.2523359 -0.38757035
000010 6c 55 ce be 31 5b b8 be f6 fe 6f be b4 96 14 be
       -0.40299547 -0.36007074 -0.23437104 -0.14510614
000020 29 5d 14 bf 96 0b 7f be 41 f9 24 be 8d ce 9d bf
       -0.5795465 -0.24906763 -0.16110708 -1.2328659
000030 33 91 88 bc 11 97 fd be 3b 9c 7d be 2b 53 65 be
       -0.016670799 -0.49529317 -0.24766628 -0.22395007
000040 33 b6 1e bf 7f f2 57 bf df 27 90 3e db 1e b4 be
       -0.61996764 -0.84354395 0.2815542 -0.3517979
000050 a0 2c e0 be 3b 4f e0 be 87 84 a4 be 9e 2e 80 be
       -0.43784046 -0.43810448 -0.3213236 -0.25035566
000060 ee 75 ac be f0 9b 85 be 8a c7 fb be 97 ea 96 be
       -0.33683723 -0.26095533 -0.49175674 -0.29475853
000070 e1 d2 a8 3d 09 1e c0 be 9d 7e 6f bf 08 32 38 3e
       0.08243347 -0.37522915 -0.9355257 0.17987835
000080 ab 10 75 be f8 b5 ee be 42 ea 1c bf 2e 49 d6 be
       -0.2393214 -0.46623206 -0.6129495 -0.41852707
000090 51 2c 57 be 81 74 1a bf 1c 50 9a be 8e 49 aa be
       -0.21012999 -0.6033402 -0.30139244 -0.33259243
0000a0 38 15 ca be e8 1d e0 be a8 d0 cd bc 91 f1 ea be
       -0.39469314 -0.43772817 -0.02512391 -0.45887426
0000b0 82 aa 92 be 6f 28 21 bf a7 da 0e be a2 0e ff be
       -0.28645712 -0.6295232 -0.13950597 -0.4981585
0000c0 76 9f 52 bd 36 50 02 be 09 b0 10 be a3 0d 80 be
       -0.051421605 -0.1272591 -0.14129652 -0.25010404
0000d0 f7 8d d4 be 9f 7b 32 3e ab b1 05 bf 98 e4 43 bf
       -0.4151456 0.1742997 -0.52224225 -0.7652068
0000e0 3b 2e 00 bf fc 0a ce be b0 e5 cb be 65 58 7d be
       -0.5007054 -0.40242755 -0.39823675 -0.24740751
0000f0 ac 3f 1a bf a7 de fd be 30 a6 c0 be fb 8a 9e be
       -0.60253406 -0.49583933 -0.3762679 -0.3096541
000100 be e9 10 bf fd 4a 91 3d 69 98 83 be c0 3d 97 bf
       -0.5660666 0.07094381 -0.25702217 -1.181572
000110 2f db e0 be 38 c2 00 bf 3d e9 4b bf 03 9d 26 bf
       -0.43917224 -0.50296354 -0.7965277 -0.6508333
000120 a6 d6 13 bf 24 d9 96 be 73 c1 ba be d5 4b 3c be
       -0.577494 -0.2946254 -0.36475715 -0.18388303
000130 46 14 be be 10 7e b4 be b0 64 d0 be 79 b0 52 be
       -0.37124842 -0.35252428 -0.40701818 -0.20575131
000140 29 d5 08 bf 81 c1 bb be 0c d0 4e be b5 65 6e be
       -0.53450257 -0.3667107 -0.20196551 -0.23280986
000150 d8 c9 98 be 8c 1f 5f be a8 1a 12 bf ba d5 ac be
       -0.29841495 -0.21789378 -0.57071924 -0.3375681
000160 e9 77 36 bf 72 9c c7 bd 76 03 22 be a4 aa db bd
       -0.7127672 -0.097466365 -0.15821633 -0.107259065
000170 9a 97 8a be b5 57 52 be 5a 06 35 bf 93 c9 84 bf
       -0.27068788 -0.2054127 -0.70712817 -1.0374016
000180 c4 47 aa be 4d ba 08 3e 80 28 9d 3d 9d af 3e bd
       -0.33257878 0.13352318 0.076737404 -0.046554197
000190 53 b8 3a bf 9d b2 da bd 18 f4 80 be 1a bb 97 be
       -0.72937506 -0.10678599 -0.2518623 -0.29634935
0001a0 b5 d5 a7 be ff 57 c0 be 3d ce d0 bd 53 a0 07 bf
       -0.32780233 -0.37567136 -0.10195587 -0.5297901
0001b0 86 28 b2 be 60 0d 99 be 73 12 e3 bc e1 9a df be
       -0.34796542 -0.29893017 -0.027718758 -0.4367285
0001c0 7a f3 53 be 07 80 b2 be 4f 17 79 be d9 bc a1 3c
       -0.20698348 -0.34863302 -0.24325298 0.01974337
0001d0 73 73 b8 be b5 ba 35 bf 99 28 90 bf 5c 24 f8 be
       -0.3602558 -0.7098802 -1.126239 -0.4846524
0001e0 41 6c 4e be ed 6b bb be 7f 85 f2 be 38 20 5a be
       -0.20158483 -0.36605778 -0.47367474 -0.21301353
0001f0 c9 1c d3 be 52 60 c6 be 8c e2 6d be f1 4c a1 be
       -0.412329 -0.38745362 -0.23230952 -0.31504014

weight f4 [12, 128]
000000 85 37 a9 3b 0d da 99 3d 9f 20 5b bd a8 35 77 bd
       0.005164089 0.07512293 -0.053497907 -0.060353905
000010 44 2e 38 3d b8 63 00 bb 8a 4e 45 bc 02 97 8d bd
       0.044965997 -0.0019590687 -0.012042651 -0.06913568
000020 b8 da de 3c 6f b4 27 3d 9a 7e eb bc 2a fa 93 3d
       0.027203903 0.04094356 -0.028746892 0.072254494
000030 f4 fe ed bc 14 d0 71 3c a3 a3 7a 3b 23 33 17 3d
       -0.029052235 0.014759082 0.0038244508 0.036914002
000040 ee b3 50 3c 10 4f ba 3d b8 c8 e6 bc 24 a0 b3 bb
       0.012738211 0.09097111 -0.028171882 -0.0054817367
000050 78 d2 ec 3b 81 56 71 bc d3 95 13 3d f5 3d f8 3c
       0.0072272383 -0.014730097 0.036031555 0.03030298
000060 19 36 29 bd a6 6a 07 bd f6 f1 d0 3c 0d 59 c8 bc
       -0.041311357 -0.033060692 0.025506001 -0.024456525
000070 2d ee d9 3c 5e d0 65 bc 29 b2 13 3d 86 20 85 3c
       0.026602829 -0.014026729 0.03605858 0.01625086
000080 4d 35 a5 bc 92 7d a8 bc b2 63 93 bc c8 52 8f bc
       -0.020167017 -0.02056769 -0.017991874 -0.017495528
000090 2f 53 6b bc f3 66 05 3d 3b a3 83 3a 9e 63 a9 bc
       -0.014363094 0.032568883 0.0010043153 -0.020677384
0000a0 b2 a4 8f bc 0b 0e ae bb 7b 17 86 3c bf b8 f5 bc
       -0.017534588 -0.0053117326 0.016368618 -0.02999532
0000b0 2c 1a 86 bc 07 e8 b8 3b 61 be a3 3c 4b 76 bd 3c
       -0.016369902 0.005642894 0.01998824 0.023127696
0000c0 18 3a cf 3c da e7 a2 bc e2 ca c7 3c 58 d1 ce 3c
       0.025296256 -0.019885946 0.024388734 0.025246307
0000d0 07 27 72 3d 45 1f c4 3c c2 4a cd bb 9a 83 7d bc
       0.05911925 0.023940692 -0.0062650153 -0.015473271
0000e0 92 cb 59 3c 94 16 8b 3c 7d 55 c9 3b 3a 5c 04 3d
       0.013293164 0.01697854 0.006144224 0.032314517
0000f0 d8 93 bf 3c 91 b0 9c 3c e7 ee 7d bc 60 d7 d7 3c
       0.023385927 0.019127162 -0.015498853 0.026347816
000100 11 3e 71 3c 14 af af bd d9 67 d9 bc bd e3 92 3d
       0.01472427 -0.085783154 -0.026538776 0.07172344
000110 ad ab 42 3c 7e 8e 94 3b 79 2d ae 3c 10 9c c7 3b
       0.011881751 0.004533588 0.021261917 0.006091602
000120 b6 80 e0 bc f2 a4 31 bd e5 41 ae 3c 32 4a 94 3c
       -0.027405124 -0.043370195 0.021271655 0.018101785
000130 8b ca 0a 3d 86 eb 9d bc 58 7f 38 bb 27 d3 04 3c
       0.033884566 -0.019277345 -0.0028152075 0.008106983
000140 28 4c 8f bc c7 eb 9f bc a9 84 8d bd 05 d7 07 bd
       -0.017492369 -0.019521607 -0.069100685 -0.033164043
000150 2f f4 b4 bb 1b b7 6a bb 24 ef 0d bd 21 74 f3 3b
       -0.005522273 -0.0035814706 -0.03465189 0.007429615
000160 4a 27 da bc 0e 2e 22 bd c4 f7 b9 bb cc 48 35 3d
       -0.026630063 -0.039594702 -0.005675288 0.044258878
000170 73 b3 8b 3a b4 1f cb 3b 89 d9 04 bd 3f ac d5 3d
       0.0010658338 0.0061988477 -0.03243402 0.10433244
000180 60 67 4a bb 0f 1f 27 3d 68 99 ba bc 38 d6 7a 3c
       -0.003088437 0.040801104 -0.022778228 0.015309863
000190 1c f5 e1 bb 4f a6 b6 3b e5 92 2a 3d 53 fe 17 bb
       -0.0068956744 0.0055740247 0.041643996 -0.002319236
0001a0 b7 99 53 3d 50 30 11 bd e0 a9 02 3d d6 89 85 bd
       0.051660266 -0.035446465 0.031900287 -0.06520431
0001b0 71 d7 29 bd 4c 76 ab bc 16 2d b1 bc 7f c6 19 bc
       -0.041465227 -0.020930432 -0.021627944 -0.009385704
0001c0 3a 22 5b bc 40 cd c4 bc 6e 3b 10 3c bc 61 2c bd
       -0.0133748595 -0.024023652 0.008803232 -0.042085394
0001d0 1a 4b 79 3c 70 08 0e bd 55 dd 90 3d a8 de 11 3d
       0.0152156595 -0.034676015 0.07073466 0.035612732
0001e0 c5 5f b5 bb 23 9b 91 3c 73 fd 42 bc d3 54 12 3c
       -0.0055350983 0.01777417 -0.011901247 0.0089313565
0001f0 58 99 47 37 f2 d4 dd 3c df 88 6a bb 9f 08 38 bd
       1.1897027e-05 0.02707908 -0.0035787148 -0.044930097
000200 4a 94 e3 bc 25 5e 4b be 57 8b 10 bd 87 8b f7 3b
       -0.02778067 -0.19860132 -0.035289135 0.0075544748
000210 01 c0 c3 bc 8c bc 09 3d 53 96 9e 3c d6 33 7f bd
       -0.023895266 0.033627078 0.01935879 -0.062305294
000220 1e a7 84 bd 5d df 05 3c 58 b9 92 bc 3f 30 87 3d
       -0.064771876 0.00817093 -0.017910644 0.06600999
000230 f7 6a 67 3c 1c f5 75 bc 95 8e 82 bd 75 f7 c6 bc
       0.0141246235 -0.015012052 -0.063748516 -0.024287919
000240 bc 49 a0 bc a1 0a fe 3c 36 54 9b 3a 19 0d da 3c
       -0.01956641 0.031010928 0.0011850658 0.026617574
000250 41 da 91 3c 42 f4 1c bc 3c 41 56 3b 03 05 16 bd
       0.017804267 -0.00957972 0.0032692691 -0.036625873
000260 18 ca 28 bd 42 df da 3b ea 8e 1f 3c d4 f1 20 bd
       -0.041208357 0.0066794464 0.009738663 -0.039293125
000270 1c 3d 7d 3d ff 5c 35 3a 98 89 15 bd 48 54 cf 3c
       0.061825857 0.00069184595 -0.036508173 0.025308743
000280 00 5e a1 bc 14 f4 04 bd e2 89 ad 3c 53 49 0c bd
       -0.019698143 -0.032459334 0.021183912 -0.034249615
000290 5a 5d 8b 3b 6e 23 a6 bc 1a 01 4c 3c e4 70 c3 3b
       0.0042530717 -0.020280566 0.0124514345 0.0059643853
0002a0 2b e7 e3 3c 0e 0c 60 bb e6 18 d8 3a b0 06 b3 bc
       0.02782019 -0.0034186873 0.0016486913 -0.021853775
0002b0 b4 e1 cd 3b 48 22 b9 3c 94 2c fb 3b 69 ff e0 bb
       0.0062830094 0.022599354 0.0076652262 -0.0068663848
0002c0 b0 c0 82 3d 5a e0 d5 bc 48 76 f0 3c b5 b9 7b bc
       0.063844085 -0.026107956 0.029353276 -0.0153641
0002d0 24 94 ae ba c8 16 fb ba b8 bd 21 3d ee 71 0c bc
       -0.0013319296 -0.001915657 0.03948757 -0.008572085
0002e0 ca 40 8e bb 57 09 98 3d b6 7b 3b 3d 72 b1 4d 3c
       -0.0043412196 0.074236564 0.045772277 0.012554513
0002f0 3a 21 4f 3a 48 d7 6a 3c f5 4b bd bb 9a 23 9b bd
       0.00079013745 0.014333554 -0.005776877 -0.0757515
000300 fc e2 9c bc 75 6c e5 bc 19 8d 05 3c 5c 9d fc 3c
       -0.019151203 -0.028005818 0.008151316 0.030836754
000310 ed 6e 86 bd 0d d9 8a 3c 36 f4 06 3e a1 8c f7 bc
       -0.06564126 0.016949201 0.13179097 -0.030218424
000320 75 46 df 3c aa c1 4d 3b b7 dd 3b 3b 19 19 18 bd
       0.027255276 0.003139595 0.0028666088 -0.03713331
000330 b4 e9 46 bd d5 13 4d 3d 2a c4 9b bc 00 31 cd 3b
       -0.04856272 0.05006774 -0.019014437 0.006261945
000340 23 70 03 bc 73 45 00 3d f9 7e e9 bc 76 c3 b2 bc
       -0.008022341 0.031316232 -0.028502928 -0.021821719
000350 68 95 0f bd f6 6f 39 bd e0 f4 01 3e 3a 67 df 3b
       -0.035054594 -0.04527279 0.12691069 0.0068177255
000360 dc ff 9d bb be 85 33 3d bd eb 46 3d 4f 75 d9 bc
       -0.0048217606 0.04382872 0.04856466 -0.026545195
000370 45 1f 34 3d 6a 3d 8d bd 2e 29 03 3d 41 a4 2b 3c
       0.043975133 -0.068964794 0.032021694 0.010476173
000380 55 ea a4 3c 27 a0 2a bd 07 69 2c bc 06 0c 08 3d
       0.02013127 -0.04165664 -0.010523087 0.03321459
000390 66 22 64 3d 86 45 de 39 31 d2 12 3b 2a 3a 0a 3c
       0.055696867 0.0004239494 0.0022403116 0.008436719
0003a0 03 8a 9a 3d 9d 6f 83 bc f4 0b 24 3d 62 5e 43 bd
       0.07545855 -0.016044432 0.040050462 -0.047697432
0003b0 1b 54 5b 3d e9 63 fa 3c 3c 86 4d 3d 9c 77 db bc
       0.053547006 0.030565219 0.050176844 -0.026790433
0003c0 0f f8 98 3b 2d 72 0c 3d 8b 4d d3 bc 83 5a a2 3b
       0.0046682428 0.034288574 -0.025793811 0.0049546375
0003d0 e1 fd e3 bb d2 c2 85 3c 02 21 9c 3d 94 67 5d bd
       -0.006957755 0.01632825 0.07623483 -0.054053858
0003e0 3f 94 26 bc 74 a6 32 3c ec 5a 34 3c bf 4d bc bd
       -0.010167181 0.010903943 0.011008006 -0.091945164
0003f0 04 fc 8b bd 27 e9 10 3d 61 02 ec bc 7a 62 6e bb
       -0.068351775 0.0353786 -0.028809728 -0.0036374615

bias f4 [12]
000000 17 ce 01 3d 2b 1e 24 be b2 36 a7 3d 3c 90 23 bd
       0.031690683 -0.16027133 0.08164729 -0.039932474
000010 16 8e b1 bd 8c fa 64 bc 07 3a 86 3d eb c1 13 3e
       -0.08669679 -0.013975751 0.065540366 0.14429443
000020 cd fa 54 3e a2 f1 02 bd ee 26 a3 bd 6d 8c 28 3d
       0.20798798 -0.03196872 -0.079664096 0.041149545
