go2_sr/policy/go2/walk_these_ways/policy_1.pt (torch, 815624 bytes, 8 tensors)

weight f4 [512, 68]
0.13709709 0.32220086 0.19600402 0.21392569 0.119054295 0.15972605 -0.11289618 -0.12427307
0.08974641 -0.10079682 -0.03606895 0.05874577 0.13208507 0.3463528 -0.04439309 0.072245836
0.05552626 0.18659918 -0.08309141 -0.044789113 0.16274595 -0.4645258 -0.2726092 0.07477956
-0.053806823 0.023906954 0.083111614 0.66924286 -0.07570186 0.5007187 -0.21687572 -0.26345047
0.3902497 -0.47683164 0.14268836 0.20908651 -0.07943888 -0.05102896 -0.02678226 0.04124936
0.10844993 0.014090793 -0.100730516 -0.05453175 -0.045465983 0.10043827 0.16682261 -0.13796628
0.0020547595 -0.0015925976 -0.01641455 0.113428436 0.14963071 -0.14181288 0.09371664 0.038188603
-0.025382381 -0.11163237 -0.047032967 -0.11036904 0.027388724 0.008501012 -0.02568398 -0.16092068
-0.15443335 0.1165661 -0.033829007 -0.13423912 0.7683137 1.1855335 0.0020040497 -0.27764636
0.006093478 0.87803435 -0.098540686 0.08055254 -0.100331604 0.084097095 0.05341213 -0.13655478
-0.113826096 -0.14575359 -0.03323852 -0.39558583 -0.07347357 0.08225969 -0.18229343 -0.14609684
0.2459601 -0.12672386 -0.5043666 0.3214829 -0.05928795 0.3675385 -0.041436974 -0.015017986
-0.18765439 -0.056690086 -0.08771788 0.3513464 -0.20071447 0.027732326 0.0037725067 -0.27625194
0.24138018 -0.09288567 -0.020284979 0.06625302 0.12967654 0.07780667 0.03291262 0.015681885
-0.03673205 -0.1450467 0.06137449 -0.046654813 -0.030399064 -0.06542972 -0.016269786 0.025151439
0.036809232 -0.03141173 0.08518691 -0.095042914 0.019604268 0.042215567 0.068853974 0.076244995
-0.06486181 0.0011199442 0.0015455548 -0.1738155 0.01573086 -0.04934565 0.02180827 0.06995736
-0.7207183 0.1772608 0.16574103 -0.18949562 0.036480606 -0.653551 -0.008235159 -0.107052155
-0.13556464 -0.036185265 -0.08796313 0.020145584 0.01695513 0.08340056 0.051556278 0.24945745
0.11716996 0.24894539 0.15811262 -0.036156014 0.36204055 0.0034609372 0.20020415 -0.36362675
-0.5255894 -0.32569888 -0.100434415 0.30074856 0.08956507 0.17083463 -0.5360028 0.87346125
-0.08215889 0.34535933 0.097236715 0.081465654 0.022312269 -0.29661423 -0.13309944 0.08637129
0.073273465 -0.11072935 -0.05745398 0.03756058 0.073854566 0.109116174 -0.13486542 0.15622516
-0.056979943 -0.029194197 -0.080353536 -0.018999204 -0.031924985 -0.06417239 -0.09197837 0.030722197
0.048154607 0.11650534 -0.054244295 0.09726602 -0.08150776 0.16517225 -0.0033428462 0.12734358
-0.08780126 0.012298121 0.010327468 -0.12424678 0.72712404 0.75891984 -0.010448283 -0.19791247
0.0369612 -0.21965867 0.049497005 -0.048697565 0.121936366 0.099935144 0.026242979 0.14293362
0.29828107 -0.25236812 -0.061442688 -0.18850954 -0.25041342 -0.08674728 0.19023429 -0.66465384
-0.11123823 0.3625079 -0.4457131 -0.01138429 -0.55122554 0.4004884 -0.041442465 -0.36816484
0.087172784 0.4659555 -0.34256327 -0.08770174 0.0894515 0.40013438 0.18202245 0.051056948
0.07570572 -0.31299344 0.021161499 -0.05680391 0.051085334 0.1019205 -0.104090676 0.07084232
0.09548333 -0.06081737 -0.07461251 0.008818729 0.07792955 0.05480223 0.008132917 0.060712505
00000000: 2e63 0c3e 83f7 a43e 47b5 483e 560f 5b3e
00000010: bdd2 f33d 3a8f 233e 1d36 e7bd e182 febd
00000020: f7cc b73d 906e cebd 09bd 13bd 689f 703d
00000030: 4f41 073e 2755 b13e 87d5 35bd a0f5 933d
00000040: 816f 633d db13 3f3e d42b aabd ca74 37bd
00000050: e0a6 263e 53d6 edbe 6f93 8bbe 0726 993d
00000060: 8b64 5cbd 84d8 c33c 6c36 aa3d 8053 2b3f
00000070: 9409 9bbd 1a2f 003f ab14 5ebe fbe2 86be
00000080: cfce c73e 4723 f4be e61c 123e c61a 563e
00000090: dab0 a2bd be03 51bd 7866 dbbc 17f5 283d
000000a0: ff1a de3d 12dd 663c cd4b cebd af5c 5fbd
000000b0: 8a3a 3abd 94b2 cd3d 8cd3 2a3e 0847 0dbe
000000c0: 25a9 063b b5be d0ba ce77 86bc 2b4d e83d
000000d0: cb38 193e 6537 11be 82ee bf3d a76b 1c3d
000000e0: b6ee cfbc 839f e4bd a4a5 40bd 2a09 e2bd
000000f0: 515e e03c d447 0b3c 3667 d2bc 64c8 24be
00000100: c723 1ebe 35ba ee3d 4990 0abd fb75 09be
00000110: 35b0 443f 90bf 973f 6056 033b aa27 8ebe
00000120: ccab c73b dcc6 603f b3cf c9bd bbf8 a43d
00000130: a87a cdbd 193b ac3d adc6 5a3d 04d5 0bbe
00000140: a81d e9bd 6e40 15be 1d25 08bd 3a8a cabe
00000150: 5079 96bd c577 a83d 21ab 3abe 699a 15be
00000160: f7dc 7b3e e6c3 01be 2b1e 01bf 6899 a43e
00000170: ecd7 72bd 022e bc3e d1b9 29bd 000e 76bc
00000180: 7928 40be dd33 68bd 6fa5 b3bd ade3 b33e
00000190: 1888 4dbe e72e e33c 293c 773b e570 8dbe
000001a0: 5e2c 773e d83a bebd af2c a6bc aaaf 873d
000001b0: edc9 043e 1a59 9f3d 62cf 063d 4c77 803c
000001c0: 5974 16bd 1f87 14be d163 7b3d 1e19 3fbd
000001d0: 7507 f9bc 0400 86bd 3748 85bc 640a ce3c
000001e0: 47c5 163d 96a9 00bd 7a76 ae3d dca5 c2bd
000001f0: 2199 a03c 3bea 2c3d 5003 8d3d 5626 9c3d
00000200: 45d6 84bd 17cb 923a 3794 ca3a b1fc 31be
00000210: 01de 803c aa1e 4abd 42a7 b23c ce45 8f3d
00000220: ff80 38bf db83 353e 04b8 293e 240b 42be
00000230: b06c 153d 1e4f 27bf c3ec 06bc 293e dbbd
00000240: 75d1 0abe 0037 14bd 0326 b4bd 5a08 a53c
00000250: 7ce5 8a3c eacd aa3d ad2c 533d c671 7f3e
00000260: cef6 ef3d 8aeb 7e3e 46e8 213e 5418 14bd
00000270: 615d b93e e4d0 623b 5102 4d3e 492d babe
00000280: 078d 06bf 01c2 a6be 8fb0 cdbd b7fb 993e
00000290: e46d b73d 46ef 2e3e 7b37 09bf 289b 5f3f
000002a0: ec42 a8bd f0d2 b03e 0b24 c73d 77d7 a63d
000002b0: 38c8 b63c d2dd 97be 384b 08be 6ee3 b03d
000002c0: 6610 963d 12c6 e2bd dd54 6bbd 1fd9 193d
000002d0: 1041 973d 4d78 df3d 291a 0abe 7df9 1f3e
000002e0: cd63 69bd ab28 efbc 6590 a4bd 38a4 9bbc
000002f0: c6c3 02bd d06c 83bd 285f bcbd 1ead fb3c
00000300: c43d 453d 5a9a ee3d 442f 5ebd 6833 c73d
00000310: 8aed a6bd ea22 293e a713 5bbb 5b66 023e
00000320: 26d1 b3bd 0f7e 493c 8a34 293c 1975 febd
00000330: cd24 3a3f 9248 423f 462f 2bbc 91a9 4abe
00000340: a164 173d 34ee 60be 5fbd 4a3d 1977 47bd
00000350: c6b9 f93d ccaa cc3d 84fb d63c 315d 123e
00000360: 4cb8 983e 6536 81be 54ab 7bbd a508 41be
00000370: 3036 80be 8fa8 b1bd c7cc 423e c126 2abf
00000380: ded0 e3bd a39a b93e 8234 e4be 2c85 3abc
00000390: 1e1d 0dbf d10c cd3e 93bf 29bd 1a80 bcbe
000003a0: a587 b23d b891 ee3e 7464 afbe f89c b3bd
000003b0: 5932 b73d 6ade cc3e 1864 3a3e 1721 513d
000003c0: 9a0b 9b3d ad40 a0be e15a ad3c 37ab 68bd
000003d0: db3e 513d b2bb d03d 7e2d d5bd c715 913d
000003e0: c48c c33d a21b 79bd 72ce 98bd 6e7c 103c
000003f0: 8799 9f3d 4e78 603d ed3f 053c adad 783d

bias f4 [512]
0.08435133 0.080780275 -0.007029614 -0.09986329 0.01994315 0.041018877 0.007448419 -0.05064387
-0.23759663 0.1777575 -0.02563447 0.13197967 0.011045486 0.033316452 0.09928602 0.1265339
-0.03805516 0.18813269 0.06596552 0.0685787 0.120844215 0.073976554 -0.16603504 -0.17875244
-0.15105024 0.14297576 0.14507285 0.18049961 -0.11856591 0.07129593 0.030074809 -0.0838214
-0.012066977 0.060990542 -0.10620983 0.06496866 0.042102728 -0.10746169 -0.04305 -0.072959825
0.15489994 -0.04451098 0.05581952 0.24068771 0.0049682492 0.088489465 -0.19251543 -0.1940611
0.13714345 0.06524216 -0.1719349 0.07530536 -0.087418295 0.14282925 0.19333243 -0.17050709
0.022816436 -0.25122324 -0.021548446 -0.09949241 -0.12472851 0.10568108 0.021665055 0.04867062
-0.0004403323 0.09745316 0.02761001 -0.14958513 0.1632577 -0.04161272 -0.1292881 0.0013059407
-0.062914565 0.06115342 0.16767475 -0.103983276 -0.14719337 -0.1384254 -0.024127353 0.06783604
0.07720358 0.1390117 0.074059084 -0.20123355 0.2969318 0.118940964 0.2514298 0.20885196
-0.049498312 -0.004591225 -0.10610287 -0.22455643 -0.012579076 0.105244644 0.058429394 0.07483991
-0.05340443 0.12598291 0.08593315 0.054869674 -0.16907744 -0.16346866 -0.14231268 0.034738064
-0.06745875 0.15688932 -0.021575589 0.05623116 -0.081008166 -0.041681383 0.052441854 0.009510084
-0.14758241 -0.020468166 0.25564468 0.09728157 -0.050869904 -0.20417924 -0.07391835 0.03188052
-0.09494933 -0.10538095 -0.013140651 -0.11120501 0.12915595 -0.093980685 0.20218512 -0.11086746
0.0046820613 -0.19602127 -0.32440642 -0.15853846 -0.088067345 0.09725719 0.19392797 -0.124711335
-0.0009815551 0.005572689 -0.14304702 -0.009985236 -0.16625643 -0.06368291 0.17001328 -0.14095147
-0.12270015 0.1304253 -0.15015642 0.013639971 -0.08513112 -0.12884897 0.08899887 0.13881269
0.1115858 -0.16211037 0.13725555 -0.007814749 -0.09338634 0.21221681 0.009075478 0.06617883
-0.001175326 -0.10643941 0.083473496 0.16907771 -0.25968724 -0.094881594 -0.04454794 0.23859924
-0.04339527 0.11235185 -0.08662912 -0.004881748 0.111331284 0.068676025 0.0052230204 -0.116512984
0.022110786 -0.08405375 -0.16784753 0.19889383 -0.17840214 0.12661925 -0.08310432 0.09670978
-0.14766191 -0.023970626 0.059980474 -0.05751262 -0.29837885 0.17261559 -0.1049967 0.18715414
0.010287344 0.11779075 -0.087203905 -0.16516143 -0.07670151 0.04257098 0.01870198 0.039118666
-0.05150255 -0.07459523 0.14446491 -0.13396294 0.16471884 -0.050520208 -0.25722435 0.10015198
-0.04013724 -0.07407097 0.0067554787 -0.09653762 0.12710525 -0.30476713 -0.029782431 0.0298469
-0.30214128 -0.14773734 0.079914115 -0.08705332 -0.085176416 0.06688529 -0.059814993 0.054743893
-0.15800215 -0.13653697 0.35074756 0.17832096 -0.026145792 -0.2247118 0.123211145 0.07667541
0.22172707 0.104180835 -0.099161446 0.079153836 -0.08736074 -0.24181436 -0.15232395 -0.17479855
0.15706024 -0.06990675 0.044776984 0.16638874 -0.0620845 -0.14942032 -0.14029217 0.080965556
-0.22191787 -0.065434515 -0.12640199 -0.14021932 -0.06758195 -0.07903414 -0.1330171 -0.12644188
00000000: 64c0 ac3d 2170 a53d ad58 e6bb 2085 ccbd
00000010: d15f a33c 6903 283d de11 f43b f26f 4fbd
00000020: 884c 73be 1006 363e 61ff d1bc ae25 073e
00000030: 20f8 343c d576 083d 7856 cb3d 1a92 013e
00000040: badf 1bbd dba5 403e ee18 873d fd72 8c3d
00000050: 2c7d f73d 0581 973d 1705 2abe e10a 37be
00000060: eaac 1abe 3d68 123e fa8d 143e e4d4 383e
00000070: afd2 f2bd 9a03 923d 725f f63c 8eaa abbd
00000080: 92b4 45bc 38d1 793d 8a84 d9bd 4a0e 853d
00000090: e973 2c3d e014 dcbd 3255 30bd f66b 95bd
000000a0: 179e 1e3e 2551 36bd 02a3 643d d776 763e
000000b0: b2cc a23b f739 b53d c422 45be f4b7 46be
000000c0: 556f 0c3e ae9d 853d b40f 30be b239 9a3d
000000d0: 5d08 b3bd d541 123e f0f8 453e 6999 2ebe
000000e0: 89e9 ba3c 55a0 80be 5e86 b0bc adc2 cbbd
000000f0: a971 ffbd 526f d83d ea7a b13c d85a 473d
00000100: 67dc e6b9 8695 c73d 632e e23c d82c 19be
00000110: 072d 273e 1972 2abd 1a64 04be 192c ab3a
00000120: 5ad9 80bd 027c 7a3d eeb2 2b3e 2ff5 d4bd
00000130: dcb9 16be 63bf 0dbe baa6 c5bc 9fed 8a3d
00000140: e91c 9e3d 1559 0e3e 4aac 973d 2b10 4ebe
00000150: 7207 983e 5297 f33d 68bb 803e 4add 553e
00000160: bebe 4abd fd71 96bb 764c d9bd 1ff2 65be
00000170: 7818 4ebc 818a d73d a953 6f3d ab45 993d
00000180: 9bbe 5abd aa01 013e b8fd af3d 06bf 603d
00000190: a322 2dbe 5464 27be 6aba 11be 8049 0e3d
000001a0: d027 8abd 98a7 203e 4abf b0bc a552 663d
000001b0: 9ce7 a5bd 19ba 2abd 45cd 563d 2fd0 1b3c
000001c0: d81f 17be dbac a7bc dce3 823e 8f3b c73d
000001d0: f65c 50bd 5d14 51be 8162 97bd 2695 023d
000001e0: cb74 c2bd f8d1 d7bd e34b 57bc 74bf e3bd
000001f0: 7541 043e f278 c0bd 9e09 4f3e 7b0e e3bd
00000200: fa6b 993b cdb9 48be 9918 a6be e857 22be
00000210: a75c b4bd c72e c73d 0e95 463e a868 ffbd
00000220: 86a7 80ba 1b9b b63b eb7a 12be 1e99 23bc
00000230: 203f 2abe 2f6c 82bd f617 2e3e 9555 10be
00000240: 374a fbbd 368e 053e 9bc2 19be 2f7a 5f3c
00000250: 3a59 aebd fcf0 03be 0a45 b63d ea24 0e3e
00000260: 1987 e43d 4300 26be b88c 0c3e 6f09 00bc
00000270: 5641 bfbd 5d4f 593e 50b1 143c c488 873d
00000280: 650d 9aba e8fc d9bd 27f4 aa3d b522 2d3e
00000290: baf5 84be 4851 c2bd e777 36bd 5c53 743e
000002a0: 3dbf 31bd ba18 e63d 9c6a b1bd 12f7 9fbb
000002b0: a801 e43d 04a6 8c3d df25 ab3b 5c9e eebd
000002c0: ae21 b53c 5f24 acbd 39e0 2bbe d3aa 4b3e
000002d0: 0daf 36be 7aa8 013e 9932 aabd c70f c63d
000002e0: af34 17be 0c5e c4bc 16ae 753d 5a92 6bbd
000002f0: 1dc5 98be 24c2 303e 8308 d7bd 56a5 3f3e
00000300: 408c 283c 473c f13d f697 b2bd 1420 29be
00000310: ae15 9dbd e85e 2e3d e534 993c e53a 203d
00000320: 56f4 52bd 62c5 98bd 9cee 133e 952d 09be
00000330: 0eac 283e 47ee 4ebd e9b2 83be 7b1c cd3d
00000340: f266 24bd 85b2 97bd 105d dd3b 84b5 c5bd
00000350: e127 023e 700a 9cbe 49fa f3bc 7c81 f43c
00000360: 43b2 9abe 7548 17be 03aa a33d 0349 b2bd
00000370: f970 aebd 28fb 883d 9100 75bd 223b 603d
00000380: 51cb 21be 59d0 0bbe 2f95 b33e c599 363e
00000390: b32f d6bc da1a 66be 2056 fc3d ff07 9d3d
000003a0: 6c0c 633e c35c d53d 2815 cbbd 681b a23d
000003b0: 30ea b2bd 2f9e 77be cffa 1bbe 64fe 32be
000003c0: 66d4 203e 452b 8fbd 1268 373d cf61 2a3e
000003d0: 514c 7ebd a401 19be c0a8 0fbe 45d1 a53d
000003e0: 703e 63be 8802 86bd 866f 01be a795 0fbe
000003f0: 6868 8abd a7dc a1bd a235 08be fb79 01be

weight f4 [256, 512]
0.0110201435 0.08007463 0.07177282 0.049271066 0.02452702 -0.034293436 0.023064014 0.07163898
0.10245142 -0.053454105 -0.03577079 0.09902358 -0.049424496 0.045822527 0.19450262 0.14277637
-0.003854871 -0.0013163709 0.0102811 0.15686375 0.0054515866 -0.038224638 -0.11601619 0.13682093
0.13520065 0.087313496 -0.008003313 0.018877959 0.08671291 0.009159092 -0.1168952 -0.10936226
0.018519115 -0.06984004 0.02405552 0.13521416 0.13292873 0.046690017 0.08600647 0.13154447
0.0319661 -0.14933747 0.097955 0.004118289 -0.024860192 -0.14840044 0.088214226 0.018585123
0.015782576 0.0052622454 -0.08135075 -0.11849572 0.4104212 0.047789447 -0.20949173 -0.11184019
-0.03817966 -0.14411166 0.031062119 -0.10683748 -0.05520182 -0.12163654 -0.0472372 0.1009852
-0.030672321 -0.014690835 -0.023326281 0.010596064 0.0034841157 0.0001707148 0.033432756 -0.18177955
0.06724274 0.03902596 -0.09903262 0.06717441 0.013567858 -0.009864347 -0.15805191 -0.0026884205
-0.028656648 -0.14554314 0.030377662 -0.07668985 0.13658132 -0.22689264 0.014912949 0.018096723
0.03897863 0.1255014 -0.057474263 0.07525018 -0.01520388 0.10630383 -0.07080265 0.0037922168
0.043057438 -0.070193306 0.0062353793 -0.18602356 0.038977124 0.008616161 -0.053356666 -0.15553601
-0.028429037 -0.03560819 -0.034113843 -0.039761495 -0.055279024 -0.060693048 0.15932086 -0.098064594
-0.023000635 -0.036719445 -0.07024795 0.09520071 -0.034867477 -0.051137306 0.016746057 -0.04775359
-0.104296826 0.07440353 -0.036364354 -0.15583436 -0.067474514 -0.05226128 0.13095549 -0.07393007
0.12600477 -0.15662025 -0.03142454 -0.022662409 -0.119105235 0.05112855 -0.17760375 0.083418384
0.16780932 -0.018795526 -0.047060903 0.13724053 -0.004018431 0.14633752 -0.02613609 0.056959942
0.08010779 0.13375032 -0.08831395 0.031422302 0.024054632 0.017613428 -0.13276443 -0.012208563
-0.0015167309 0.08067427 0.2604926 -0.097519025 -0.043290023 -0.12424036 -0.16126245 -0.03092973
0.039462693 -0.033717774 -0.104039766 0.099994294 0.0010680042 0.17937982 0.012314886 0.17116007
0.06304287 -0.050181948 0.0352316 -0.05174714 -0.012943356 0.12366472 -0.041800965 -0.19220167
0.027049806 -0.024183791 0.05377695 0.27655217 0.008128904 -0.021754427 -0.048808932 -0.08544833
-0.175829 -0.0063204574 -0.032475743 0.1591171 -0.04901673 0.18760702 -0.09731787 0.10495602
0.044084724 0.03462666 -0.002389877 0.13737163 0.17532063 -0.039777588 -0.06595591 0.008905442
0.00857817 -0.014689695 -0.11183697 0.0085757775 0.03854441 -0.08023197 0.04608166 -0.012594742
0.025885355 -0.044334628 0.013597714 0.01912017 0.07937685 0.07668452 0.02012367 0.12159642
0.06803512 -0.040324777 -0.06548461 0.09138802 -0.032190647 -0.056250885 -0.040013663 -0.15579703
0.0051224288 0.09976101 0.003850046 -0.011899098 0.032099802 0.03138108 0.042901896 0.21409772
0.07499374 0.07994347 -0.10498862 -0.06174185 0.023517234 -0.004020157 -0.16438004 0.08392439
0.09598616 -0.020050585 0.07705478 0.024712631 0.17579132 -0.0945948 0.054406524 -0.1702545
0.11088891 -0.1295245 0.04920098 -0.13861147 -0.047509447 -0.031058762 -0.05335218 0.092042096
00000000: d58d 343c 2bfe a33d a1fd 923d 75d0 493d
00000010: e4ec c83c 4677 0cbd bef0 bc3c 75b7 923d
00000020: 0dd2 d13d b1f2 5abd 6484 12bd e0cc ca3d
00000030: 5771 4abd 67b0 3b3d b22b 473e f833 123e
00000040: 01a2 7cbb 148a acba 0f72 283c e4a0 203e
00000050: 39a3 b23b 7091 1cbd e599 edbd c91a 0c3e
00000060: 0a72 0a3e 6bd1 b23d 5420 03bc f3a5 9a3c
00000070: 8a96 b13d 0410 163c c066 efbd 52f9 dfbd
00000080: 66b5 973c 4b08 8fbd 1510 c53c 9575 0a3e
00000090: 781e 083e 083e 3f3d 2924 b03d 98b3 063e
000000a0: e3ee 023d eceb 18be a29c c83d b6f2 863b
000000b0: 9aa7 cbbc 49f6 17be a9a9 b43d d43f 983c
000000c0: 764a 813c ea6e ac3b 399b a6bd e2ad f2bd
000000d0: ba22 d23e debe 433d 0085 56be 780c e5bd
000000e0: 4662 1cbd 0292 13be fc75 fe3c 9ccd dabd
000000f0: 4e1b 62bd 941c f9bd cb7b 41bd 54d1 ce3d
00000100: 8544 fbbc d4b1 70bc c216 bfbc 1d9b 2d3c
00000110: c355 643b e801 3339 c9f0 083d 6b24 3abe
00000120: 90b6 893d afd9 1f3d 9dd1 cabd bd92 893d
00000130: b94b 5e3c 129e 21bc 5cd8 21be 3630 30bb
00000140: 59c1 eabc 4309 15be 93da f83c 910f 9dbd
00000150: f9db 0b3e 8b56 68be 7155 743c 943f 943c
00000160: 0ea8 1f3d 7083 003e 226a 6bbd c41c 9a3d
00000170: b219 79bc d3b5 d93d fb00 91bd d786 783b
00000180: ff5c 303d 82c1 8fbd 2752 cc3b f67c 3ebe
00000190: 7aa6 1f3d cc2a 0d3c 858c 5abd d544 1fbe
000001a0: 03e4 e8bc e5d9 11bd f5ba 0bbd f3dc 22bd
000001b0: 426c 62bd 4699 78bd 0225 233e 17d6 c8bd
000001c0: d46b bcbc 2167 16bd 28de 8fbd 97f8 c23d
000001d0: 33d1 0ebd 5a75 51bd 072f 893c 4599 43bd
000001e0: 9399 d5bd e160 983d caf2 14bd 0b93 1fbe
000001f0: 1430 8abd ed0f 56bd 3219 063e a668 97bd
00000200: 6507 013e 0f61 20be 05b7 00bd 84a6 b9bc
00000210: 72ed f3bd 2c6c 513d c2dd 35be 42d7 aa3d
00000220: 35d6 2b3e 13f9 99bc efc2 40bd c888 0c3e
00000230: 0bad 83bb 81d9 153e 5a1b d6bc d44e 693d
00000240: 8e0f a43d d8f5 083e f2dd b4bd acb4 003d
00000250: 380e c53c 094a 903c 66f3 07be 6d06 48bc
00000260: 0bcd c6ba 8d38 a53d 495f 853e 0eb8 c7bd
00000270: e150 31bd bb71 febd fc21 25be 5860 fdbc
00000280: a2a3 213d a61b 0abd cd12 d5bd cfc9 cc3d
00000290: 46fc 8b3a 58af 373e 60c4 493c 9644 2f3e
000002a0: 9f1c 813d 968b 4dbd 034f 103d cff4 53bd
000002b0: 5f10 54bc ee43 fd3d 7d37 2bbd 84d0 44be
000002c0: 8e97 dd3c 161d c6bc 3845 5c3d 3f98 8d3e
000002d0: 182f 053c 5736 b2bc e0eb 47bd 89ff aebd
000002e0: 840c 34be d71b cfbb 4905 05bd 98ef 223e
000002f0: c4c5 48bd 0e1c 403e 974e c7bd 2ff3 d63d
00000300: 2f92 343d afd4 0d3d 7c9f 1cbb 26ab 0c3e
00000310: 4087 333e d3ed 22bd e413 87bd 22e8 113c
00000320: 748b 0c3c 0cad 70bc c80a e5bd 6b81 0c3c
00000330: bee0 1d3d a950 a4bd 1fc0 3c3d 2d5a 4ebc
00000340: 860d d43c 3a98 35bd f2c8 5e3c e7a1 9c3c
00000350: 5490 a23d c60c 9d3d 65da a43c 8b07 f93d
00000360: ff55 8b3d 982b 25bd cc1c 86bd a429 bb3d
00000370: 57da 03bd 5467 66bd 5ee5 23bd 4289 1fbe
00000380: 0cda a73b 804f cc3d 0e51 7c3b 6ff4 42bc
00000390: 157b 033d 7389 003d e6b9 2f3d 6f3c 5b3e
000003a0: 5196 993d 67b9 a33d 4604 d7bd 06e5 7cbd
000003b0: 37a7 c03c 85bb 83bb 3e53 28be 8de0 ab3d
000003c0: 6494 c43d 2041 a4bc e6ce 9d3d 2572 ca3c
000003d0: a402 343e ebba c1bd 60d9 5e3d 3257 2ebe
000003e0: ba19 e33d 12a2 04be f886 493d 2af0 0dbe
000003f0: 4499 42bd f26e febc d187 5abd 9180 bc3d

bias f4 [256]
0.0057659317 0.07486287 -0.2872612 -0.12915903 0.018825684 -0.21351257 -0.11816711 -0.018860593
-0.11607156 -0.0623815 0.031651244 -0.09028732 -0.092595346 0.022440784 0.05362535 -0.074706376
-0.036035206 -0.037634917 -0.12659696 0.037803788 0.009749319 0.041453835 0.0083521 -0.06273883
-0.13119972 0.00429562 -0.071819544 0.0028565235 -0.14103176 -0.03636826 0.0023827464 -0.16913481
-0.0575598 -0.06375873 -0.19685802 0.019310078 -0.10020522 -0.014794543 -0.07641714 -0.013219196
-0.109355964 -0.12087717 -0.06268979 -0.15155445 -0.028682921 -0.09400835 0.027955277 -0.16504604
-0.13852972 -0.014939989 -0.044882555 -0.062033437 -0.009877642 -0.05597344 -0.05266244 -0.16009088
-0.031490956 -0.028928043 -0.07173169 -0.16952667 -0.027413096 -0.024669454 -0.07996133 -0.015229124
-0.121512115 -0.025844177 0.008801592 -0.045293756 -0.15294011 0.04406367 -0.051574565 -0.03726107
0.039748657 0.045353454 -0.020221444 -0.102685526 -0.07355866 -0.09156894 -0.04615226 -0.05305912
-0.06874904 -0.15403977 -0.033277005 -0.067439824 -0.19556381 -0.12619787 -0.124197006 -0.09761815
-0.06308321 -0.08920833 -0.17953125 -0.043914843 -0.07234163 -0.06767997 -0.063743494 -0.13833076
-0.101424254 -0.031126212 0.022268293 -0.015835512 -0.05869572 -0.018827975 -0.03670367 -0.030583816
0.021418678 -0.028484276 -0.11660272 0.009984874 -0.011108493 -0.043100074 -0.1002759 -0.10931375
-0.074816644 -0.06437935 -0.0846361 -0.00026978285 -0.08308533 -0.07980785 -0.08437351 -0.023831
0.0059264754 0.052779008 -0.0011210184 -0.048920516 0.076164305 -0.021010118 -0.031944323 -0.028199462
0.006048494 -0.04201864 -0.04952361 -0.12641242 -0.082217336 -0.052127335 -0.068759 0.12178212
-0.117913246 0.037422687 -0.052573346 -0.10568283 -0.056668982 -0.080762684 -0.06794417 -0.06821944
-0.07217664 -0.15522988 -0.044385396 0.050878517 -0.1067265 -0.1558141 -0.12342091 -0.10521203
-0.00013734221 -0.15640758 -0.13291925 -0.14291479 0.028080262 -0.14208487 -0.036736656 0.030977663
0.006863159 -0.02290599 -0.021249993 -0.083988465 -0.17383729 -0.15100366 0.08442582 -0.043092363
-0.021065066 -0.08548318 -0.122023195 -0.07695196 -0.01242801 -0.053703684 -0.07441607 -0.034552973
-0.15758756 -0.06809631 0.053854827 -0.21444966 -0.08007366 -0.019704614 -0.053003684 0.01842295
-0.0848621 -0.012438499 -0.14369322 -0.07008094 -0.20360841 -0.059084233 -0.0045032827 -0.07944324
-0.1005157 -0.03471516 0.02597837 -0.12721345 -0.12912683 -0.048368428 0.015119939 -0.20798235
-0.08333244 0.056157243 -0.11830796 -0.07173378 -0.013691572 -0.14846262 0.01709157 0.026313113
-0.060494494 -0.096613 -0.0036930947 -0.063226536 -0.049092427 -0.11428765 -0.0546585 -0.14269383
-0.17846836 0.028652878 0.038215544 -0.07193662 -0.105176106 -0.13745788 0.045728102 -0.03594283
-0.16178189 -0.02687454 -0.022933943 -0.029815713 -0.05683311 0.013541589 -0.07767255 -0.06683233
-0.087067135 -0.11821039 -0.05780756 -0.06033176 -0.03932434 0.026474202 -0.10347796 -0.07758239
-0.038470596 -0.077330336 -0.037229136 -0.08991395 -0.049980413 -0.15641321 -0.115315855 -0.15506004
-0.037441786 -0.20768853 0.0033428106 -0.035969023 -0.00039514195 -0.09316273 0.023416033 -0.011331362
00000000: 24f0 bc3b b451 993d e613 93be 4442 04be
00000010: 5238 9a3c 0aa3 5abe 9901 f2bd 8881 9abc
00000020: edb6 edbd be83 7fbd bca4 013d 8fe8 b8bd
00000030: a1a2 bdbd bcd5 b73c 41a6 5b3d a8ff 98bd
00000040: a799 13bd 1227 1abd a2a2 01be 25d8 1a3d
00000050: 9cbb 1f3c 7fcb 293d 3fd7 083c 377d 80bd
00000060: 3859 06be 46c2 8c3b 2016 93bd 8334 3b3b
00000070: a16a 10be e2f6 14bd da27 1c3b ad31 2dbe
00000080: d3c3 6bbd f093 82bd 2695 49be 2b30 9e3c
00000090: 6538 cdbd d064 72bc 9780 9cbd 5495 58bc
000000a0: 05f6 dfbd 738e f7bd 8163 80bd 1731 1bbe
000000b0: 72f8 eabc 7387 c0bd 7702 e53c d401 29be
000000c0: bcda 0dbe dbc6 74bc c5d6 37bd c616 7ebd
000000d0: d5d5 21bc 6844 65bd 92b4 57bd ddee 23be
000000e0: a9fc 00bd 81fa ecbc 10e8 92bd 6698 2dbe
000000f0: 6e91 e0bc 9817 cabc c4c2 a3bd 9383 79bc
00000100: 58db f8bd 2bb7 d3bc 8d34 103c f285 39bd
00000110: 559c 1cbe 1b7c 343d da3f 53bd 109f 18bd
00000120: 7dcf 223d 8bc4 393d 71a7 a5bc ca4c d2bd
00000130: eca5 96bd 7f88 bbbd 270a 3dbd 8554 59bd
00000140: 4ccc 8cbd 9abc 1dbe 784d 08bd e41d 8abd
00000150: e141 48be 043a 01be 005b febd 06ec c7bd
00000160: c531 81bd dbb2 b6bd 0ad7 37be 0de0 33bd
00000170: d927 94bd cc9b 8abd f38b 82bd 94a6 0dbe
00000180: 85b7 cfbd 66fc febc ff6b b63c 7ab9 81bc
00000190: ec6a 70bd 203d 9abc 9656 16bd e98a fabc
000001a0: 3976 af3c db57 e9bc 68cd eebd 9997 233c
000001b0: 6600 36bc b489 30bd 735d cdbd e3df dfbd
000001c0: 7839 99bd 52d9 83bd b155 adbd a471 8db9
000001d0: a428 aabd 4c72 a3bd 05cc acbd 3b39 c3bc
000001e0: e132 c23b cd2e 583d 23ef 92ba e160 48bd
000001f0: 08fc 9b3d 691d acbc 0dd8 02bd 8f02 e7bc
00000200: 7232 c63b bd1b 2cbd 45d9 4abd 4272 01be
00000210: 9061 a8bd 7983 55bd 85d1 8cbd e768 f93d
00000220: 807c f1bd 8848 193d 2657 57bd 3d70 d8bd
00000230: bc1d 68bd e866 a5bd 5026 8bbd a2b6 8bbd
00000240: 59d1 93bd 95f4 1ebe 76cd 35bd fe65 503d
00000250: 6c93 dabd bb8d 1fbe 1ac4 fcbd 6879 d7bd
00000260: 8503 10b9 4f29 20be fc1b 08be 4158 12be
00000270: 9408 e63c b27e 11be 2d79 16bd dec4 fd3c
00000280: 5ae4 e03b 58a5 bbbc 7714 aebc 2502 acbd
00000290: 6702 32be b4a0 1abe 72e7 ac3d 9e81 30bd
000002a0: a590 acbc ce11 afbd 4ce7 f9bd fd98 9dbd
000002b0: da9e 4bbc 65f8 5bbd 7467 98bd 6b87 0dbd
000002c0: a25e 21be 1476 8bbd e196 5c3d b198 5bbe
000002d0: a9fd a3bd 926b a1bc 641a 59bd baeb 963c
000002e0: 2ecc adbd d9ca 4bbc 5124 13be 9986 8fbd
000002f0: b97e 50be 4f02 72bd 4690 93bb 23b3 a2bd
00000300: 2ddb cdbd 7c31 0ebd 97d0 d43c 3e44 02be
00000310: d339 04be f91d 46bd 9fb9 773c 53f9 54be
00000320: 33aa aabd 2305 663d 724b f2bd 29e9 92bd
00000330: 9d52 60bc 9606 18be 9f03 8c3c 998e d73c
00000340: 13c9 77bd 09dd c5bd d907 72bb ea7c 81bd
00000350: 2415 49bd a50f eabd 97e1 5fbd 551e 12be
00000360: 69c0 36be 71b9 ea3c e787 1c3d 8253 93bd
00000370: 9266 d7bd c2c1 0cbe 644d 3b3d ca38 13bd
00000380: 27aa 25be ff27 dcbc f7df bbbc 1540 f4bc
00000390: d6c9 68bd 8add 5d3c c912 9fbd 63df 88bd
000003a0: 4150 b2bd 4a18 f2bd 9fc7 6cbd 701e 77bd
000003b0: 8f12 21bd 6de0 d83c 41ec d3bd 84e3 9ebd
000003c0: 5893 1dbd 5e5f 9ebd 947d 18bd ce24 b8bd
000003d0: 43b8 4cbd c92a 20be b82a ecbd 0fc8 1ebe
000003e0: 8f5c 19bd 4dac 54be 0e13 5b3b 4154 13bd
000003f0: 0e2b cfb9 1acc bebd fbd2 bf3c 2da7 39bc

weight f4 [128, 256]
-0.100648515 -0.13245976 0.09128857 -0.0610856 -0.117439985 0.019340033 0.13246675 -0.036824588
0.04393687 0.061176527 -0.11142063 0.013380223 -0.0993607 0.06712976 0.005966088 0.06844651
-0.022968743 0.021463163 -0.032292094 0.030034477 0.060081534 0.12106033 -0.03774555 0.117395535
0.0014775852 0.080316484 0.059475366 -0.059361275 -0.009742411 -0.035514712 -0.07041257 0.16842535
0.0062450753 -0.13384223 0.016146645 0.08219378 0.005073016 0.025042513 0.24472393 -0.0796763
-0.13149561 -0.09609095 0.016729744 -0.029095054 0.051926844 0.06524374 0.049964447 0.13286057
-0.049915716 -0.1603975 -0.094477534 0.121918194 -0.039706245 -0.010675302 -0.007934023 0.07052615
0.088517055 0.0474458 0.06296618 0.17558259 -0.052794155 -0.058062643 -0.013226621 0.069589555
0.004747149 -0.0065210043 0.061526064 0.1618638 0.0006671346 0.06569168 0.08911093 -0.10868081
-0.033110764 -0.06518287 0.051101726 -0.013376272 0.1718529 -0.042927027 -0.03960506 0.100065015
0.0010020757 0.23173165 0.09460177 0.016158666 0.09457039 0.041356213 0.014134541 -0.053975634
-0.009524299 0.04597152 -0.16919126 -0.10180565 0.095623985 0.09192406 0.029174367 -0.1312095
0.055800732 -0.12367383 0.011547777 0.08473433 -0.08073494 -0.017375743 -0.02521749 -0.087686785
-0.13890098 -0.11266899 -0.04336181 -0.08034329 -0.03717415 -0.06028517 0.01428545 0.037637144
0.05150119 0.09231723 0.025938813 -0.0391107 -0.008207233 0.059476227 0.009574054 -0.14811344
0.13132136 0.0039056262 -0.12573841 -0.007964195 -0.023841886 0.0050962633 0.13092378 0.14198951
-0.17288142 0.005898866 0.01591822 0.14798993 -0.049975295 0.16859359 -0.043218765 -0.11764685
0.07842634 -0.13464521 -0.1011746 0.1689968 0.031780235 0.057229325 -0.04251104 4.0549417e-06
4.782427e-05 0.046308555 -0.060308397 0.041332208 -0.04949732 0.22066925 -0.042667385 0.111061774
0.13199277 0.1626596 0.043440674 -0.013735213 -0.11334771 0.011746381 -0.061877113 -0.08138519
0.018700236 -0.051711556 -0.03824809 -0.051709685 0.052918676 -0.07930316 -0.08288338 -0.005243414
-0.039757993 0.08632179 0.026409363 -0.037209094 -0.21957952 -0.048863243 -0.039011627 0.036387842
0.015679901 -0.107444674 0.036383964 0.04607641 -0.04994018 0.09133478 0.085288525 -0.10581551
0.062199272 0.008085907 0.09070828 0.031838197 0.0273372 0.009040413 -0.046938322 0.114105105
-0.0055453368 -0.14235555 -0.08943991 -0.003932805 0.07163175 0.07836265 -0.05999729 0.2394917
0.02113179 -0.019621203 0.059312116 0.051515445 0.015968814 0.060682572 -0.12157041 -0.05494144
-0.07953959 0.043577902 -0.12683366 -0.0056379666 0.01924069 -0.020928463 0.019856757 0.07088948
0.029725296 -0.04429025 -0.00821429 -0.10046804 -0.010041946 0.054190964 0.05623012 0.033311676
0.15382154 0.038278744 0.09618443 -0.03398937 0.016376266 -0.0046007824 -0.052027304 0.045393262
-0.061038416 0.08005782 0.025261976 -0.09737375 0.18428238 -0.010379826 0.17139216 0.07330738
-0.07106407 0.04280443 0.005355348 -0.02539481 0.06105998 -0.06728311 0.12743641 -0.09039609
0.025848329 0.021620192 -0.075124264 0.0434106 0.11023584 0.047871668 -0.07909513 -0.06373016
00000000: cf20 cebd 88a3 07be 80f5 ba3d e534 7abd
00000010: 6084 f0bd fd6e 9e3c 5da5 073e 61d5 16bd
00000020: 26f7 333d 3d94 7a3d 8030 e4bd b938 5b3c
00000030: 9f7d cbbd 547b 893d 2c7f c33b af2d 8c3d
00000040: f228 bcbc 84d3 af3c b744 04bd dd0a f63c
00000050: 0e18 763d 7aee f73d 149b 1abd 126d f03d
00000060: 88ab c13a f87c a43d 719c 733d cf24 73bd
00000070: a29e 1fbc e077 11bd 7734 90bd b277 2c3e
00000080: 7da3 cc3b f00d 09be f845 843c 3655 a83d
00000090: 8b3b a63b f525 cd3c e998 7a3e 542d a3bd
000000a0: c9a6 06be 55cb c4bd d10c 893c c058 eebc
000000b0: 3eb1 543d 839e 853d 85a7 4c3d 9a0c 083e
000000c0: 6c74 4cbd 3e3f 24be 707d c1bd 3fb0 f93d
000000d0: 04a3 22bd 76e7 2ebc b4fd 01bc 0470 903d
000000e0: 6e48 b53d 8756 423d 6af4 803d eccb 333e
000000f0: af3e 58bd 18d3 6dbd 78b4 58bc f884 8e3d
00000100: f98d 9b3b 26ae d5bb c102 7c3d a0bf 253e
00000110: a5e2 2e3a 5c89 863d cb7f b63d 0b94 debd
00000120: 279f 07bd 997e 85bd 0b50 513d 2728 5bbc
00000130: 35fa 2f3e 40d4 2fbd ea38 22bd e3ee cc3d
00000140: 1558 833a 104b 6d3e 93be c13d 2e5f 843c
00000150: 1fae c13d 2265 293d 9094 673c 8e15 5dbd
00000160: ce0b 1cbc a24c 3c3d 7940 2dbe 7b7f d0bd
00000170: 82d6 c33d ae42 bc3d 15ff ee3c c85b 06be
00000180: 4f8f 643d b448 fdbd e332 3d3c 3189 ad3d
00000190: 5c58 a5bd 9357 8ebc e994 cebc 2195 b3bd
000001a0: 0f3c 0ebe 00bf e6bd 279c 31bd 068b a4bd
000001b0: ec43 18bd 95ed 76bd 850d 6a3c 6829 1a3d
000001c0: e9f2 523d d110 bd3d a27d d43c 8b32 20bd
000001d0: a177 06bc 589d 733d 7edc 1c3c 0dab 17be
000001e0: 1b79 063e 89f5 7f3b 92c1 00be 417c 02bc
000001f0: 0f50 c3bc 8efe a63b e210 063e b365 113e
00000200: d407 31be 464b c13b ed66 823c ac8a 173e
00000210: e5b2 4cbd cca3 2c3e 2906 31bd d5f0 f0bd
00000220: fd9d a03d 6fe0 09be a134 cfbd 7f0d 2d3e
00000230: fe2b 023d 4c69 6a3d 0e20 2ebd af0f 8836
00000240: eb96 4838 0aae 3d3d f005 77bd f64b 293d
00000250: b4bd 4abd 1ff7 613e ffc3 2ebd 5b74 e33d
00000260: 1d29 073e 3d90 263e d9ee 313d a909 61bc
00000270: d822 e8bd e573 403c db72 7dbd 47ad a6bd
00000280: 3d31 993c 7fcf 53bd 07aa 1cbd 89cd 53bd
00000290: 41c1 583d b269 a2bd c3be a9bd f2d0 abbb
000002a0: 47d9 22bd 7bc9 b03d 7358 d83c 9068 18bd
000002b0: 74d9 60be d324 48bd a8ca 1fbd 6b0b 153d
000002c0: 2373 803c f40b dcbd 5a07 153d 9eba 3c3d
000002d0: 138e 4cbd bb0d bb3d c0ab ae3d cdb5 d8bd
000002e0: aac4 7e3d c17a 043c 43c5 b93d c568 023d
000002f0: 43f2 df3c 3e1e 143c 6642 40bd f0af e93d
00000300: a8b5 b5bb a7c5 11be 462c b7bd c2de 80bb
00000310: abb3 923d 997c a03d b8bf 75bd 503d 753e
00000320: 931c ad3c a5bc a0bc 43f1 723d dc01 533d
00000330: 08d1 823c 4a8e 783d e8f9 f8bd 460a 61bd
00000340: a7e5 a2bd be7e 323d afe0 01be b1be b8bb
00000350: a79e 9d3c 2b72 abbc a3aa a23c 812e 913d
00000360: 7782 f33c b169 35bd 3b95 06bc 30c2 cdbd
00000370: f986 24bc 58f7 5d3d 8e51 663d d371 083d
00000380: 6583 1d3e 2cca 1c3d 58fc c43d 7038 0bbd
00000390: 8527 863c 29c2 96bb 951a 55bd 49ee 393d
000003a0: 6b03 7abd 5bf5 a33d 34f2 ce3c e36b c7bd
000003b0: 85b4 3c3e 2510 2abc 6d81 2f3e 2e22 963d
000003c0: 0a8a 91bd b353 2f3d ea7b af3b c708 d0bc
000003d0: 081a 7a3d bacb 89bd b17e 023e 9621 b9bd
000003e0: e0bf d33c d41c b13c c0da 99bd 50cf 313d
000003f0: 54c3 e13d 1515 443d a1fc a1bd f584 82bd

bias f4 [128]
-0.10462509 0.00963678 0.04455159 -0.02116113 0.019426342 -0.13158143 -0.032047745 -0.08647704
-0.10340268 -0.13627216 -0.07014922 -0.084940284 -0.10389195 0.017131103 -0.0878902 -0.08318865
-0.026996545 -0.015606182 -0.043123804 -0.030890962 -0.11315442 -0.12828083 -0.07341434 -0.07763883
-0.078402855 -0.19375488 0.022849126 -0.070049405 -0.035074577 0.019405993 -0.09849166 -0.066182755
-0.034525085 -0.09104298 -0.08154339 -0.0840095 -0.09008768 -0.062049393 -0.07851693 -0.116582945
-0.020961028 -0.026503108 -0.06591472 -0.058006164 -0.12952125 -0.041429758 -0.07708156 -0.15081473
-0.079762645 -0.035417806 -0.093711235 -0.0053756353 -0.12029757 -0.11182864 -0.032725498 0.055535253
-0.054075614 -0.08449506 -0.13185483 0.015846541 -0.12566705 -0.010809083 0.019962186 -0.08320903
-0.019353699 -0.045738712 -0.13198219 -0.019399479 -0.005500965 -0.06483382 0.002105678 -0.07699497
0.026408017 -0.11316071 -0.0782997 -0.052284546 0.004023682 -0.04540809 -0.0014006176 0.011435657
-0.048778493 0.0035505833 -0.012315525 -0.03919558 -0.12480851 0.0046557183 -0.014860299 -0.03298302
-0.061381787 0.06536667 -0.013040629 -0.04236461 -0.046881728 -0.09938759 -0.13508514 0.012407958
-0.16958146 -0.045482 -0.10140939 -0.075320065 -0.010905435 -0.055773985 0.057558797 -0.14733456
-0.044251546 -0.031784978 0.018223919 -0.07928385 -0.033519052 -0.060039632 -0.046393577 -0.14568256
-0.017414872 -0.06223561 -0.030758655 -0.08874228 -0.10210813 -0.11015209 -0.086449474 -0.008638914
-0.006296183 -0.043695983 -0.21224144 -0.12226927 -0.014935781 -0.14748985 -0.0153762065 -0.11891602
00000000: ae45 d6bd 96e3 1d3c ba7b 363d 1b5a adbc
00000010: fe23 9f3c 48bd 06be 7f44 03bd e01a b1bd
00000020: c9c4 d3bd ee8a 0bbe 65aa 8fbd 2cf5 adbd
00000030: 4dc5 d4bd 8756 8c3c c7ff b3bd d05e aabd
00000040: dc27 ddbc 12b1 7fbc 96a2 30bd 0b0f fdbc
00000050: 81bd e7bd 0d5c 03be 425a 96bd 1b01 9fbd
00000060: ad91 a0bd ae67 46be 172e bb3c 1076 8fbd
00000070: 5caa 0fbd 51f9 9e3c ffb5 c9bd d38a 87bd
00000080: 2d6a 0dbd be74 babd 3900 a7bd 2c0d acbd
00000090: e47f b8bd 8127 7ebd 7ccd a0bd 0ac3 eebd
000000a0: 76b6 abbc 0c1d d9bc 4cfe 86bd df97 6dbd
000000b0: 38a1 04be 40b2 29bd f0dc 9dbd 2d6f 1abe
000000c0: 995a a3bd 4312 11bd adeb bfbd 1926 b0bb
000000d0: 935e f6bd 6a06 e5bd 2c0b 06bd ef78 633d
000000e0: 647e 5dbd bf0b adbd f404 07be 9bd0 813c
000000f0: ddae 00be 9418 31bc bd87 a33c 7f69 aabd
00000100: a68b 9ebc 8458 3bbd 5726 07be a8eb 9ebc
00000110: 7041 b4bb 98c7 84bd 6aff 093b 8aaf 9dbd
00000120: a055 d83c cdc0 e7bd 985b a0bd 5228 56bd
00000130: 17d9 833b d5fd 39bd ee94 b7ba 9f5c 3b3c
00000140: f5cb 47bd e7b0 683b 0ec7 49bc 8b8b 20bd
00000150: 9b9b ffbd ff8e 983b 9d78 73bc 3419 07bd
00000160: 786b 7bbd f6de 853d 5da8 55bc 8386 2dbd
00000170: 0e07 40bd b98b cbbd c253 0abe bf4a 4b3c
00000180: c3a6 2dbe 554b 3abd baaf cfbd 6841 9abd
00000190: b6ac 32bc 4373 64bd c6c2 6b3d dfde 16be
000001a0: 1c41 35bd f730 02bd 544a 953c 925f a2bd
000001b0: 464b 09bd 1eec 75bd 3107 3ebd cf2d 15be
000001c0: a2a9 8ebc c4ea 7ebd 93f9 fbbc 83be b5bd
000001d0: 111e d1bd 6b97 e1bd 6c0c b1bd 3b8a 0dbc
000001e0: 3650 cebb 8ffa 32bd d255 59be 5068 fabd
000001f0: 35b5 74bc 9407 17be 7cec 7bbc 3e8a f3bd

weight f4 [12, 128]
0.031821985 0.014689592 -0.028998233 0.014374074 -0.0422043 -0.045098916 0.05774361 0.07129428
-0.024697876 -0.07188863 0.02441718 -0.020333117 0.036023747 0.04715112 0.006918419 -0.00840607
-0.007198651 -0.0031171702 0.03623609 -0.024658611 -0.0024799334 0.02667745 -0.011703833 0.019577725
0.049263697 0.03177516 -0.0028155649 -0.009111094 -0.056371074 -0.005640566 0.009487261 0.035315838
0.019615978 -0.069156915 0.010517844 0.004050753 -0.070554726 0.07529419 0.039225686 0.03012081
0.107937425 -0.022445623 0.013871858 0.04611625 0.030800268 0.013377615 0.01816789 -0.024876965
-0.09459788 0.004925389 -0.014465621 0.008797978 0.086964 -0.040159192 0.032512534 0.020099908
0.030033026 -0.0060163382 0.048955053 -0.0059862593 0.0074570263 -0.02054163 0.00826007 -0.047679473
0.0016593091 -0.027571386 0.010911653 -0.050613347 0.023487262 0.020848664 0.0004657131 -0.02535098
-0.034478705 0.0031005614 0.079911806 -0.0019121486 -0.023843864 -0.00082468113 -0.06631602 -0.0680587
0.009596793 -0.018072836 -0.07896021 -0.08460476 0.011615837 -0.043665852 -0.02701583 0.016872091
0.049280796 0.009449006 -0.026307782 0.053145178 0.012014672 -0.048892044 -0.040978152 0.04663712
-0.007214596 -0.006325996 0.026087297 0.041742925 -0.026947584 0.06889209 -0.024403783 -0.0075251325
0.075033575 0.09601803 -0.027185308 0.0032466073 -0.015047284 0.038506348 -0.05442865 0.05391754
-0.0152402865 -0.026833655 -0.007634697 -0.0282595 -0.051434938 0.02568036 -0.011272133 0.024874598
0.03414608 0.0026782546 0.098815374 -0.02807743 0.048719004 -0.017205425 0.039351635 0.08918162
0.013172362 -0.027556473 0.013191642 -0.09076814 -0.044653766 -0.10565766 0.024326906 -0.08217764
-0.011518879 0.024263322 -0.048031162 -0.03259513 -0.021358948 0.020211002 0.039225444 0.06096774
0.06490384 0.068858095 0.046508033 -0.048808232 0.027272224 0.023502212 0.0144352075 -0.046007566
-0.034048934 -0.12904623 -0.017810835 -0.06861188 -0.0037579888 -0.007983909 -0.008836229 0.050273154
-0.0394545 0.04620941 0.06166499 0.0920346 -0.12829831 0.03258182 0.06629625 -0.020671172
0.029241253 -0.038871884 -0.07901764 -0.015594825 0.009536882 0.01544776 0.015375392 -0.026976723
0.040353365 -0.022861246 0.04991661 -0.00221712 -0.059160087 -0.04140917 -0.0022724469 -0.04039577
-0.028992647 0.013503277 0.035186484 -0.005326129 0.03300398 -0.0834137 0.059564095 0.044512507
-0.048907734 -0.058552727 0.012236542 0.014860278 0.015404032 -0.001803358 0.031373028 0.021587575
0.10395148 -0.106722385 0.0021238537 -0.001699406 -0.04520831 0.038096614 -0.06610956 -0.007345999
-0.008997943 0.027890334 0.08267338 0.15720639 -0.037433103 -0.008553741 0.04683254 -0.006119951
-0.11351644 -0.0006608962 0.0351297 0.06426522 0.05918611 -0.009031968 0.01780606 0.009198655
0.028152527 0.03058631 -0.017278297 -0.0014138814 -0.07153065 -0.023822945 0.051692273 0.035871677
0.070246845 -0.03414865 0.04848621 0.036100037 -0.0121890465 -0.008310976 0.039647385 0.007165709
-0.011669061 0.021404227 -0.101050295 0.07602525 0.028247302 -0.008151604 0.005234931 0.026392967
0.010614844 0.047069278 0.16456532 0.03147039 -0.0008655855 -0.004948613 0.0013100562 0.010171666
00000000: c557 023d 9dac 703c b48d edbc 3c81 6b3c
00000010: 6bde 2cbd a4b9 38bd 9084 6c3d bc02 923d
00000020: 3353 cabc 593a 93bd 8a06 c83c a391 a6bc
00000030: a38d 133d 8821 413d e8b3 e23b 9db9 09bc
00000040: a9e2 ebbb 7049 4cbb 4b6c 143d db00 cabc
00000050: 6186 22bb ab8a da3c 6fc1 3fbc 7761 a03c
00000060: bbc8 493d ac26 023d 5785 38bb b346 15bc
00000070: 5be5 66bd 7fd4 b8bb 7570 1b3c 57a7 103d
00000080: b0b1 a03c 24a2 8dbd 0953 2c3c 2ebc 843b
00000090: ff7e 90bd d733 9a3d 1dab 203d ebbf f63c
000000a0: 4c0e dd3d e2df b7bc ca46 633c 65e4 3c3d
000000b0: d850 fc3c c92d 5b3c d4d4 943c c7ca cbbc
000000c0: 89bc c1bd 2865 a13b 3601 6dbc 6525 103c
000000d0: 2e1a b23d f77d 24bd dd2b 053d 90a8 a43c
000000e0: d207 f63c b424 c5bb 1885 483d 6228 c4bb
000000f0: 125a f43b ec46 a8bc 3f55 073c 8d4b 43bd
00000100: 2d7d d93a 63dd e1bc cac6 323c f14f 4fbd
00000110: 5c68 c03c d1ca aa3c f42a f439 dcac cfbc
00000120: 8b39 0dbd ca32 4b3b cda8 a33d 0fa1 faba
00000130: 3554 c3bc 6a2f 58ba b2d0 87bd 5c62 8bbd
00000140: de3b 1d3c 7c0d 94bc e4b5 a1bd 4345 adbd
00000150: 5a50 3e3c f7da 32bd 4d50 ddbc 5737 8a3c
00000160: a9da 493d 01d0 1a3c 6b83 d7bc c2ae 593d
00000170: 30d9 443c 0643 48bd b5d8 27bd 9106 3f3d
00000180: 6b68 ecbb 4d4a cfbb 07b5 d53c a1fa 2a3d
00000190: 2ec1 dcbc 4c17 8d3d 71ea c7bc 6395 f6bb
000001a0: 34ab 993d 1aa5 c43d b9b3 debc 08c5 543b
000001b0: e288 76bc d5b8 1d3d 93f0 5ebd a3d8 5c3d
000001c0: 65b2 79bc 41d2 dbbc 7b2c fabb 7880 e7bc
000001d0: 71ad 52bd 9e5f d23c c1ae 38bc d0c5 cb3c
000001e0: c3dc 0b3d a885 2f3b b75f ca3d a302 e6bc
000001f0: 948d 473d 64f2 8cbc 2e2f 213d daa4 b63d
00000200: e4d0 573c 1dbe e1bc c221 583c a6e4 b9bd
00000210: dee6 36bd 0b63 d8bd 3849 c73c c04c a8bd
00000220: aeb9 3cbc e0c3 c63c 53bc 44bd 7982 05bd
00000230: f6f8 aebc 8b91 a53c dcaa 203d 4fb9 793d
00000240: 4eec 843d 7905 8d3d 357f 3e3d 24eb 47bd
00000250: 006a df3c b687 c03c a681 6c3c 6e72 3cbd
00000260: e576 0bbd b224 04be 07e8 91bc 6384 8cbd
00000270: 9748 76bb f1ce 02bc d5c5 10bc 39eb 4d3d
00000280: 0b9b 21bd 1446 3d3d 6e94 7c3d a37c bc3d
00000290: a260 03be 8474 053d 54c6 873d 9756 a9bc
000002a0: 5a8b ef3c 2038 1fbd 00d4 a1bd 7081 7fbc
000002b0: 9540 1c3c 9a18 7d3c 11e9 7b3c 4afe dcbc
000002c0: 9249 253d 8247 bbbc 5c75 4c3d 1a4d 11bb
000002d0: d951 72bd a99c 29bd 55ed 14bb 0976 25bd
000002e0: fd81 edbc d93c 5d3c b41f 103d cf86 aebb
000002f0: 2e2f 073d cdd4 aabd 7bf9 733d bf52 363d
00000300: 7a53 48bd fcd4 6fbd c77b 483c 8678 733c
00000310: 3161 7c3c a75e ecba 0181 003d 6dd8 b03c
00000320: 83e4 d43d 4491 dabd 5a30 0b3b 9abe deba
00000330: 592c 39bd 320b 1c3d 7364 87bd b5b6 f0bb
00000340: 1c6c 13bc 457a e43c a950 a93d b6fa 203e
00000350: 7453 19bd fd24 0cbc 7ad3 3f3d df89 c8bb
00000360: 4f7b e8bd fe3f 2dba 29e4 0f3d 7c9d 833d
00000370: 226d 723d d2fa 13bc 04de 913c f5b5 163c
00000380: 21a0 e63c 2490 fa3c 378b 8dbc fd51 b9ba
00000390: a97e 92bd 5628 c3bc 47bb 533d 2eee 123d
000003a0: 94dd 8f3d 74df 0bbd 7a99 463d a2dd 133d
000003b0: 91b4 47bc c32a 08bc 4c65 223d 53ce ea3b
000003c0: 972f 3fbc eb57 af3c 75f3 cebd 20b3 9b3d
000003d0: e366 e73c 4e8e 05bc c989 ab3b 1036 d83c
000003e0: e2e9 2d3c b7cb 403d d083 283e 18e7 003d
000003f0: 76e8 62ba f927 a2bb 31b6 ab3a 0fa7 263c

bias f4 [12]
0.08069873 0.013789041 0.09611841 -0.08896248 -0.035357293 0.111302234 -0.0156007 0.036593948
0.07754517 0.03759868 0.10213585 -0.015605095
00000000: 6045 a53d 6eeb 613c bbd9 c43d f631 b6bd
00000010: cfd2 10bd 6df2 e33d 149a 7fbc 89e3 153d
00000020: 01d0 9e3d 1301 1a3d 9a2c d13d 83ac 7fbc
